{
  "format": "layers-model",
  "generatedBy": "keras v2.15.0",
  "convertedBy": "Pure Python Converter",
  "modelTopology": {
    "class_name": "Sequential",
    "config": {
      "name": "Intel_Image_CNN_Transfer",
      "layers": [
        {
          "module": "keras.layers",
          "class_name": "InputLayer",
          "config": {
            "batch_input_shape": [
              null,
              160,
              160,
              3
            ],
            "dtype": "float32",
            "sparse": false,
            "ragged": false,
            "name": "input_2"
          },
          "registered_name": null
        },
        {
          "module": "keras.src.engine.functional",
          "class_name": "Functional",
          "config": {
            "name": "mobilenetv2_1.00_160",
            "trainable": true,
            "layers": [
              {
                "module": "keras.layers",
                "class_name": "InputLayer",
                "config": {
                  "batch_input_shape": [
                    null,
                    160,
                    160,
                    3
                  ],
                  "dtype": "float32",
                  "sparse": false,
                  "ragged": false,
                  "name": "input_1"
                },
                "registered_name": null,
                "name": "input_1",
                "inbound_nodes": []
              },
              {
                "module": "keras.layers",
                "class_name": "Conv2D",
                "config": {
                  "name": "Conv1",
                  "trainable": false,
                  "dtype": "float32",
                  "filters": 32,
                  "kernel_size": [
                    3,
                    3
                  ],
                  "strides": [
                    2,
                    2
                  ],
                  "padding": "same",
                  "data_format": "channels_last",
                  "dilation_rate": [
                    1,
                    1
                  ],
                  "groups": 1,
                  "activation": "linear",
                  "use_bias": false,
                  "kernel_initializer": {
                    "module": "keras.initializers",
                    "class_name": "GlorotUniform",
                    "config": {
                      "seed": null
                    },
                    "registered_name": null
                  },
                  "bias_initializer": {
                    "module": "keras.initializers",
                    "class_name": "Zeros",
                    "config": {},
                    "registered_name": null
                  },
                  "kernel_regularizer": null,
                  "bias_regularizer": null,
                  "activity_regularizer": null,
                  "kernel_constraint": null,
                  "bias_constraint": null
                },
                "registered_name": null,
                "build_config": {
                  "input_shape": [
                    null,
                    160,
                    160,
                    3
                  ]
                },
                "name": "Conv1",
                "inbound_nodes": [
                  [
                    [
                      "input_1",
                      0,
                      0,
                      {}
                    ]
                  ]
                ]
              },
              {
                "module": "keras.layers",
                "class_name": "BatchNormalization",
                "config": {
                  "name": "bn_Conv1",
                  "trainable": false,
                  "dtype": "float32",
                  "axis": [
                    3
                  ],
                  "momentum": 0.999,
                  "epsilon": 0.001,
                  "center": true,
                  "scale": true,
                  "beta_initializer": {
                    "module": "keras.initializers",
                    "class_name": "Zeros",
                    "config": {},
                    "registered_name": null
                  },
                  "gamma_initializer": {
                    "module": "keras.initializers",
                    "class_name": "Ones",
                    "config": {},
                    "registered_name": null
                  },
                  "moving_mean_initializer": {
                    "module": "keras.initializers",
                    "class_name": "Zeros",
                    "config": {},
                    "registered_name": null
                  },
                  "moving_variance_initializer": {
                    "module": "keras.initializers",
                    "class_name": "Ones",
                    "config": {},
                    "registered_name": null
                  },
                  "beta_regularizer": null,
                  "gamma_regularizer": null,
                  "beta_constraint": null,
                  "gamma_constraint": null
                },
                "registered_name": null,
                "build_config": {
                  "input_shape": [
                    null,
                    80,
                    80,
                    32
                  ]
                },
                "name": "bn_Conv1",
                "inbound_nodes": [
                  [
                    [
                      "Conv1",
                      0,
                      0,
                      {}
                    ]
                  ]
                ]
              },
              {
                "module": "keras.layers",
                "class_name": "ReLU",
                "config": {
                  "name": "Conv1_relu",
                  "trainable": false,
                  "dtype": "float32",
                  "max_value": 6.0,
                  "negative_slope": 0.0,
                  "threshold": 0.0
                },
                "registered_name": null,
                "name": "Conv1_relu",
                "inbound_nodes": [
                  [
                    [
                      "bn_Conv1",
                      0,
                      0,
                      {}
                    ]
                  ]
                ]
              },
              {
                "module": "keras.layers",
                "class_name": "DepthwiseConv2D",
                "config": {
                  "name": "expanded_conv_depthwise",
                  "trainable": false,
                  "dtype": "float32",
                  "kernel_size": [
                    3,
                    3
                  ],
                  "strides": [
                    1,
                    1
                  ],
                  "padding": "same",
                  "data_format": "channels_last",
                  "dilation_rate": [
                    1,
                    1
                  ],
                  "groups": 1,
                  "activation": "linear",
                  "use_bias": false,
                  "bias_initializer": {
                    "module": "keras.initializers",
                    "class_name": "Zeros",
                    "config": {},
                    "registered_name": null
                  },
                  "bias_regularizer": null,
                  "activity_regularizer": null,
                  "bias_constraint": null,
                  "depth_multiplier": 1,
                  "depthwise_initializer": {
                    "module": "keras.initializers",
                    "class_name": "GlorotUniform",
                    "config": {
                      "seed": null
                    },
                    "registered_name": null
                  },
                  "depthwise_regularizer": null,
                  "depthwise_constraint": null
                },
                "registered_name": null,
                "build_config": {
                  "input_shape": [
                    null,
                    80,
                    80,
                    32
                  ]
                },
                "name": "expanded_conv_depthwise",
                "inbound_nodes": [
                  [
                    [
                      "Conv1_relu",
                      0,
                      0,
                      {}
                    ]
                  ]
                ]
              },
              {
                "module": "keras.layers",
                "class_name": "BatchNormalization",
                "config": {
                  "name": "expanded_conv_depthwise_BN",
                  "trainable": false,
                  "dtype": "float32",
                  "axis": [
                    3
                  ],
                  "momentum": 0.999,
                  "epsilon": 0.001,
                  "center": true,
                  "scale": true,
                  "beta_initializer": {
                    "module": "keras.initializers",
                    "class_name": "Zeros",
                    "config": {},
                    "registered_name": null
                  },
                  "gamma_initializer": {
                    "module": "keras.initializers",
                    "class_name": "Ones",
                    "config": {},
                    "registered_name": null
                  },
                  "moving_mean_initializer": {
                    "module": "keras.initializers",
                    "class_name": "Zeros",
                    "config": {},
                    "registered_name": null
                  },
                  "moving_variance_initializer": {
                    "module": "keras.initializers",
                    "class_name": "Ones",
                    "config": {},
                    "registered_name": null
                  },
                  "beta_regularizer": null,
                  "gamma_regularizer": null,
                  "beta_constraint": null,
                  "gamma_constraint": null
                },
                "registered_name": null,
                "build_config": {
                  "input_shape": [
                    null,
                    80,
                    80,
                    32
                  ]
                },
                "name": "expanded_conv_depthwise_BN",
                "inbound_nodes": [
                  [
                    [
                      "expanded_conv_depthwise",
                      0,
                      0,
                      {}
                    ]
                  ]
                ]
              },
              {
                "module": "keras.layers",
                "class_name": "ReLU",
                "config": {
                  "name": "expanded_conv_depthwise_relu",
                  "trainable": false,
                  "dtype": "float32",
                  "max_value": 6.0,
                  "negative_slope": 0.0,
                  "threshold": 0.0
                },
                "registered_name": null,
                "name": "expanded_conv_depthwise_relu",
                "inbound_nodes": [
                  [
                    [
                      "expanded_conv_depthwise_BN",
                      0,
                      0,
                      {}
                    ]
                  ]
                ]
              },
              {
                "module": "keras.layers",
                "class_name": "Conv2D",
                "config": {
                  "name": "expanded_conv_project",
                  "trainable": false,
                  "dtype": "float32",
                  "filters": 16,
                  "kernel_size": [
                    1,
                    1
                  ],
                  "strides": [
                    1,
                    1
                  ],
                  "padding": "same",
                  "data_format": "channels_last",
                  "dilation_rate": [
                    1,
                    1
                  ],
                  "groups": 1,
                  "activation": "linear",
                  "use_bias": false,
                  "kernel_initializer": {
                    "module": "keras.initializers",
                    "class_name": "GlorotUniform",
                    "config": {
                      "seed": null
                    },
                    "registered_name": null
                  },
                  "bias_initializer": {
                    "module": "keras.initializers",
                    "class_name": "Zeros",
                    "config": {},
                    "registered_name": null
                  },
                  "kernel_regularizer": null,
                  "bias_regularizer": null,
                  "activity_regularizer": null,
                  "kernel_constraint": null,
                  "bias_constraint": null
                },
                "registered_name": null,
                "build_config": {
                  "input_shape": [
                    null,
                    80,
                    80,
                    32
                  ]
                },
                "name": "expanded_conv_project",
                "inbound_nodes": [
                  [
                    [
                      "expanded_conv_depthwise_relu",
                      0,
                      0,
                      {}
                    ]
                  ]
                ]
              },
              {
                "module": "keras.layers",
                "class_name": "BatchNormalization",
                "config": {
                  "name": "expanded_conv_project_BN",
                  "trainable": false,
                  "dtype": "float32",
                  "axis": [
                    3
                  ],
                  "momentum": 0.999,
                  "epsilon": 0.001,
                  "center": true,
                  "scale": true,
                  "beta_initializer": {
                    "module": "keras.initializers",
                    "class_name": "Zeros",
                    "config": {},
                    "registered_name": null
                  },
                  "gamma_initializer": {
                    "module": "keras.initializers",
                    "class_name": "Ones",
                    "config": {},
                    "registered_name": null
                  },
                  "moving_mean_initializer": {
                    "module": "keras.initializers",
                    "class_name": "Zeros",
                    "config": {},
                    "registered_name": null
                  },
                  "moving_variance_initializer": {
                    "module": "keras.initializers",
                    "class_name": "Ones",
                    "config": {},
                    "registered_name": null
                  },
                  "beta_regularizer": null,
                  "gamma_regularizer": null,
                  "beta_constraint": null,
                  "gamma_constraint": null
                },
                "registered_name": null,
                "build_config": {
                  "input_shape": [
                    null,
                    80,
                    80,
                    16
                  ]
                },
                "name": "expanded_conv_project_BN",
                "inbound_nodes": [
                  [
                    [
                      "expanded_conv_project",
                      0,
                      0,
                      {}
                    ]
                  ]
                ]
              },
              {
                "module": "keras.layers",
                "class_name": "Conv2D",
                "config": {
                  "name": "block_1_expand",
                  "trainable": false,
                  "dtype": "float32",
                  "filters": 96,
                  "kernel_size": [
                    1,
                    1
                  ],
                  "strides": [
                    1,
                    1
                  ],
                  "padding": "same",
                  "data_format": "channels_last",
                  "dilation_rate": [
                    1,
                    1
                  ],
                  "groups": 1,
                  "activation": "linear",
                  "use_bias": false,
                  "kernel_initializer": {
                    "module": "keras.initializers",
                    "class_name": "GlorotUniform",
                    "config": {
                      "seed": null
                    },
                    "registered_name": null
                  },
                  "bias_initializer": {
                    "module": "keras.initializers",
                    "class_name": "Zeros",
                    "config": {},
                    "registered_name": null
                  },
                  "kernel_regularizer": null,
                  "bias_regularizer": null,
                  "activity_regularizer": null,
                  "kernel_constraint": null,
                  "bias_constraint": null
                },
                "registered_name": null,
                "build_config": {
                  "input_shape": [
                    null,
                    80,
                    80,
                    16
                  ]
                },
                "name": "block_1_expand",
                "inbound_nodes": [
                  [
                    [
                      "expanded_conv_project_BN",
                      0,
                      0,
                      {}
                    ]
                  ]
                ]
              },
              {
                "module": "keras.layers",
                "class_name": "BatchNormalization",
                "config": {
                  "name": "block_1_expand_BN",
                  "trainable": false,
                  "dtype": "float32",
                  "axis": [
                    3
                  ],
                  "momentum": 0.999,
                  "epsilon": 0.001,
                  "center": true,
                  "scale": true,
                  "beta_initializer": {
                    "module": "keras.initializers",
                    "class_name": "Zeros",
                    "config": {},
                    "registered_name": null
                  },
                  "gamma_initializer": {
                    "module": "keras.initializers",
                    "class_name": "Ones",
                    "config": {},
                    "registered_name": null
                  },
                  "moving_mean_initializer": {
                    "module": "keras.initializers",
                    "class_name": "Zeros",
                    "config": {},
                    "registered_name": null
                  },
                  "moving_variance_initializer": {
                    "module": "keras.initializers",
                    "class_name": "Ones",
                    "config": {},
                    "registered_name": null
                  },
                  "beta_regularizer": null,
                  "gamma_regularizer": null,
                  "beta_constraint": null,
                  "gamma_constraint": null
                },
                "registered_name": null,
                "build_config": {
                  "input_shape": [
                    null,
                    80,
                    80,
                    96
                  ]
                },
                "name": "block_1_expand_BN",
                "inbound_nodes": [
                  [
                    [
                      "block_1_expand",
                      0,
                      0,
                      {}
                    ]
                  ]
                ]
              },
              {
                "module": "keras.layers",
                "class_name": "ReLU",
                "config": {
                  "name": "block_1_expand_relu",
                  "trainable": false,
                  "dtype": "float32",
                  "max_value": 6.0,
                  "negative_slope": 0.0,
                  "threshold": 0.0
                },
                "registered_name": null,
                "name": "block_1_expand_relu",
                "inbound_nodes": [
                  [
                    [
                      "block_1_expand_BN",
                      0,
                      0,
                      {}
                    ]
                  ]
                ]
              },
              {
                "module": "keras.layers",
                "class_name": "ZeroPadding2D",
                "config": {
                  "name": "block_1_pad",
                  "trainable": false,
                  "dtype": "float32",
                  "padding": [
                    [
                      0,
                      1
                    ],
                    [
                      0,
                      1
                    ]
                  ],
                  "data_format": "channels_last"
                },
                "registered_name": null,
                "name": "block_1_pad",
                "inbound_nodes": [
                  [
                    [
                      "block_1_expand_relu",
                      0,
                      0,
                      {}
                    ]
                  ]
                ]
              },
              {
                "module": "keras.layers",
                "class_name": "DepthwiseConv2D",
                "config": {
                  "name": "block_1_depthwise",
                  "trainable": false,
                  "dtype": "float32",
                  "kernel_size": [
                    3,
                    3
                  ],
                  "strides": [
                    2,
                    2
                  ],
                  "padding": "valid",
                  "data_format": "channels_last",
                  "dilation_rate": [
                    1,
                    1
                  ],
                  "groups": 1,
                  "activation": "linear",
                  "use_bias": false,
                  "bias_initializer": {
                    "module": "keras.initializers",
                    "class_name": "Zeros",
                    "config": {},
                    "registered_name": null
                  },
                  "bias_regularizer": null,
                  "activity_regularizer": null,
                  "bias_constraint": null,
                  "depth_multiplier": 1,
                  "depthwise_initializer": {
                    "module": "keras.initializers",
                    "class_name": "GlorotUniform",
                    "config": {
                      "seed": null
                    },
                    "registered_name": null
                  },
                  "depthwise_regularizer": null,
                  "depthwise_constraint": null
                },
                "registered_name": null,
                "build_config": {
                  "input_shape": [
                    null,
                    81,
                    81,
                    96
                  ]
                },
                "name": "block_1_depthwise",
                "inbound_nodes": [
                  [
                    [
                      "block_1_pad",
                      0,
                      0,
                      {}
                    ]
                  ]
                ]
              },
              {
                "module": "keras.layers",
                "class_name": "BatchNormalization",
                "config": {
                  "name": "block_1_depthwise_BN",
                  "trainable": false,
                  "dtype": "float32",
                  "axis": [
                    3
                  ],
                  "momentum": 0.999,
                  "epsilon": 0.001,
                  "center": true,
                  "scale": true,
                  "beta_initializer": {
                    "module": "keras.initializers",
                    "class_name": "Zeros",
                    "config": {},
                    "registered_name": null
                  },
                  "gamma_initializer": {
                    "module": "keras.initializers",
                    "class_name": "Ones",
                    "config": {},
                    "registered_name": null
                  },
                  "moving_mean_initializer": {
                    "module": "keras.initializers",
                    "class_name": "Zeros",
                    "config": {},
                    "registered_name": null
                  },
                  "moving_variance_initializer": {
                    "module": "keras.initializers",
                    "class_name": "Ones",
                    "config": {},
                    "registered_name": null
                  },
                  "beta_regularizer": null,
                  "gamma_regularizer": null,
                  "beta_constraint": null,
                  "gamma_constraint": null
                },
                "registered_name": null,
                "build_config": {
                  "input_shape": [
                    null,
                    40,
                    40,
                    96
                  ]
                },
                "name": "block_1_depthwise_BN",
                "inbound_nodes": [
                  [
                    [
                      "block_1_depthwise",
                      0,
                      0,
                      {}
                    ]
                  ]
                ]
              },
              {
                "module": "keras.layers",
                "class_name": "ReLU",
                "config": {
                  "name": "block_1_depthwise_relu",
                  "trainable": false,
                  "dtype": "float32",
                  "max_value": 6.0,
                  "negative_slope": 0.0,
                  "threshold": 0.0
                },
                "registered_name": null,
                "name": "block_1_depthwise_relu",
                "inbound_nodes": [
                  [
                    [
                      "block_1_depthwise_BN",
                      0,
                      0,
                      {}
                    ]
                  ]
                ]
              },
              {
                "module": "keras.layers",
                "class_name": "Conv2D",
                "config": {
                  "name": "block_1_project",
                  "trainable": false,
                  "dtype": "float32",
                  "filters": 24,
                  "kernel_size": [
                    1,
                    1
                  ],
                  "strides": [
                    1,
                    1
                  ],
                  "padding": "same",
                  "data_format": "channels_last",
                  "dilation_rate": [
                    1,
                    1
                  ],
                  "groups": 1,
                  "activation": "linear",
                  "use_bias": false,
                  "kernel_initializer": {
                    "module": "keras.initializers",
                    "class_name": "GlorotUniform",
                    "config": {
                      "seed": null
                    },
                    "registered_name": null
                  },
                  "bias_initializer": {
                    "module": "keras.initializers",
                    "class_name": "Zeros",
                    "config": {},
                    "registered_name": null
                  },
                  "kernel_regularizer": null,
                  "bias_regularizer": null,
                  "activity_regularizer": null,
                  "kernel_constraint": null,
                  "bias_constraint": null
                },
                "registered_name": null,
                "build_config": {
                  "input_shape": [
                    null,
                    40,
                    40,
                    96
                  ]
                },
                "name": "block_1_project",
                "inbound_nodes": [
                  [
                    [
                      "block_1_depthwise_relu",
                      0,
                      0,
                      {}
                    ]
                  ]
                ]
              },
              {
                "module": "keras.layers",
                "class_name": "BatchNormalization",
                "config": {
                  "name": "block_1_project_BN",
                  "trainable": false,
                  "dtype": "float32",
                  "axis": [
                    3
                  ],
                  "momentum": 0.999,
                  "epsilon": 0.001,
                  "center": true,
                  "scale": true,
                  "beta_initializer": {
                    "module": "keras.initializers",
                    "class_name": "Zeros",
                    "config": {},
                    "registered_name": null
                  },
                  "gamma_initializer": {
                    "module": "keras.initializers",
                    "class_name": "Ones",
                    "config": {},
                    "registered_name": null
                  },
                  "moving_mean_initializer": {
                    "module": "keras.initializers",
                    "class_name": "Zeros",
                    "config": {},
                    "registered_name": null
                  },
                  "moving_variance_initializer": {
                    "module": "keras.initializers",
                    "class_name": "Ones",
                    "config": {},
                    "registered_name": null
                  },
                  "beta_regularizer": null,
                  "gamma_regularizer": null,
                  "beta_constraint": null,
                  "gamma_constraint": null
                },
                "registered_name": null,
                "build_config": {
                  "input_shape": [
                    null,
                    40,
                    40,
                    24
                  ]
                },
                "name": "block_1_project_BN",
                "inbound_nodes": [
                  [
                    [
                      "block_1_project",
                      0,
                      0,
                      {}
                    ]
                  ]
                ]
              },
              {
                "module": "keras.layers",
                "class_name": "Conv2D",
                "config": {
                  "name": "block_2_expand",
                  "trainable": false,
                  "dtype": "float32",
                  "filters": 144,
                  "kernel_size": [
                    1,
                    1
                  ],
                  "strides": [
                    1,
                    1
                  ],
                  "padding": "same",
                  "data_format": "channels_last",
                  "dilation_rate": [
                    1,
                    1
                  ],
                  "groups": 1,
                  "activation": "linear",
                  "use_bias": false,
                  "kernel_initializer": {
                    "module": "keras.initializers",
                    "class_name": "GlorotUniform",
                    "config": {
                      "seed": null
                    },
                    "registered_name": null
                  },
                  "bias_initializer": {
                    "module": "keras.initializers",
                    "class_name": "Zeros",
                    "config": {},
                    "registered_name": null
                  },
                  "kernel_regularizer": null,
                  "bias_regularizer": null,
                  "activity_regularizer": null,
                  "kernel_constraint": null,
                  "bias_constraint": null
                },
                "registered_name": null,
                "build_config": {
                  "input_shape": [
                    null,
                    40,
                    40,
                    24
                  ]
                },
                "name": "block_2_expand",
                "inbound_nodes": [
                  [
                    [
                      "block_1_project_BN",
                      0,
                      0,
                      {}
                    ]
                  ]
                ]
              },
              {
                "module": "keras.layers",
                "class_name": "BatchNormalization",
                "config": {
                  "name": "block_2_expand_BN",
                  "trainable": false,
                  "dtype": "float32",
                  "axis": [
                    3
                  ],
                  "momentum": 0.999,
                  "epsilon": 0.001,
                  "center": true,
                  "scale": true,
                  "beta_initializer": {
                    "module": "keras.initializers",
                    "class_name": "Zeros",
                    "config": {},
                    "registered_name": null
                  },
                  "gamma_initializer": {
                    "module": "keras.initializers",
                    "class_name": "Ones",
                    "config": {},
                    "registered_name": null
                  },
                  "moving_mean_initializer": {
                    "module": "keras.initializers",
                    "class_name": "Zeros",
                    "config": {},
                    "registered_name": null
                  },
                  "moving_variance_initializer": {
                    "module": "keras.initializers",
                    "class_name": "Ones",
                    "config": {},
                    "registered_name": null
                  },
                  "beta_regularizer": null,
                  "gamma_regularizer": null,
                  "beta_constraint": null,
                  "gamma_constraint": null
                },
                "registered_name": null,
                "build_config": {
                  "input_shape": [
                    null,
                    40,
                    40,
                    144
                  ]
                },
                "name": "block_2_expand_BN",
                "inbound_nodes": [
                  [
                    [
                      "block_2_expand",
                      0,
                      0,
                      {}
                    ]
                  ]
                ]
              },
              {
                "module": "keras.layers",
                "class_name": "ReLU",
                "config": {
                  "name": "block_2_expand_relu",
                  "trainable": false,
                  "dtype": "float32",
                  "max_value": 6.0,
                  "negative_slope": 0.0,
                  "threshold": 0.0
                },
                "registered_name": null,
                "name": "block_2_expand_relu",
                "inbound_nodes": [
                  [
                    [
                      "block_2_expand_BN",
                      0,
                      0,
                      {}
                    ]
                  ]
                ]
              },
              {
                "module": "keras.layers",
                "class_name": "DepthwiseConv2D",
                "config": {
                  "name": "block_2_depthwise",
                  "trainable": false,
                  "dtype": "float32",
                  "kernel_size": [
                    3,
                    3
                  ],
                  "strides": [
                    1,
                    1
                  ],
                  "padding": "same",
                  "data_format": "channels_last",
                  "dilation_rate": [
                    1,
                    1
                  ],
                  "groups": 1,
                  "activation": "linear",
                  "use_bias": false,
                  "bias_initializer": {
                    "module": "keras.initializers",
                    "class_name": "Zeros",
                    "config": {},
                    "registered_name": null
                  },
                  "bias_regularizer": null,
                  "activity_regularizer": null,
                  "bias_constraint": null,
                  "depth_multiplier": 1,
                  "depthwise_initializer": {
                    "module": "keras.initializers",
                    "class_name": "GlorotUniform",
                    "config": {
                      "seed": null
                    },
                    "registered_name": null
                  },
                  "depthwise_regularizer": null,
                  "depthwise_constraint": null
                },
                "registered_name": null,
                "build_config": {
                  "input_shape": [
                    null,
                    40,
                    40,
                    144
                  ]
                },
                "name": "block_2_depthwise",
                "inbound_nodes": [
                  [
                    [
                      "block_2_expand_relu",
                      0,
                      0,
                      {}
                    ]
                  ]
                ]
              },
              {
                "module": "keras.layers",
                "class_name": "BatchNormalization",
                "config": {
                  "name": "block_2_depthwise_BN",
                  "trainable": false,
                  "dtype": "float32",
                  "axis": [
                    3
                  ],
                  "momentum": 0.999,
                  "epsilon": 0.001,
                  "center": true,
                  "scale": true,
                  "beta_initializer": {
                    "module": "keras.initializers",
                    "class_name": "Zeros",
                    "config": {},
                    "registered_name": null
                  },
                  "gamma_initializer": {
                    "module": "keras.initializers",
                    "class_name": "Ones",
                    "config": {},
                    "registered_name": null
                  },
                  "moving_mean_initializer": {
                    "module": "keras.initializers",
                    "class_name": "Zeros",
                    "config": {},
                    "registered_name": null
                  },
                  "moving_variance_initializer": {
                    "module": "keras.initializers",
                    "class_name": "Ones",
                    "config": {},
                    "registered_name": null
                  },
                  "beta_regularizer": null,
                  "gamma_regularizer": null,
                  "beta_constraint": null,
                  "gamma_constraint": null
                },
                "registered_name": null,
                "build_config": {
                  "input_shape": [
                    null,
                    40,
                    40,
                    144
                  ]
                },
                "name": "block_2_depthwise_BN",
                "inbound_nodes": [
                  [
                    [
                      "block_2_depthwise",
                      0,
                      0,
                      {}
                    ]
                  ]
                ]
              },
              {
                "module": "keras.layers",
                "class_name": "ReLU",
                "config": {
                  "name": "block_2_depthwise_relu",
                  "trainable": false,
                  "dtype": "float32",
                  "max_value": 6.0,
                  "negative_slope": 0.0,
                  "threshold": 0.0
                },
                "registered_name": null,
                "name": "block_2_depthwise_relu",
                "inbound_nodes": [
                  [
                    [
                      "block_2_depthwise_BN",
                      0,
                      0,
                      {}
                    ]
                  ]
                ]
              },
              {
                "module": "keras.layers",
                "class_name": "Conv2D",
                "config": {
                  "name": "block_2_project",
                  "trainable": false,
                  "dtype": "float32",
                  "filters": 24,
                  "kernel_size": [
                    1,
                    1
                  ],
                  "strides": [
                    1,
                    1
                  ],
                  "padding": "same",
                  "data_format": "channels_last",
                  "dilation_rate": [
                    1,
                    1
                  ],
                  "groups": 1,
                  "activation": "linear",
                  "use_bias": false,
                  "kernel_initializer": {
                    "module": "keras.initializers",
                    "class_name": "GlorotUniform",
                    "config": {
                      "seed": null
                    },
                    "registered_name": null
                  },
                  "bias_initializer": {
                    "module": "keras.initializers",
                    "class_name": "Zeros",
                    "config": {},
                    "registered_name": null
                  },
                  "kernel_regularizer": null,
                  "bias_regularizer": null,
                  "activity_regularizer": null,
                  "kernel_constraint": null,
                  "bias_constraint": null
                },
                "registered_name": null,
                "build_config": {
                  "input_shape": [
                    null,
                    40,
                    40,
                    144
                  ]
                },
                "name": "block_2_project",
                "inbound_nodes": [
                  [
                    [
                      "block_2_depthwise_relu",
                      0,
                      0,
                      {}
                    ]
                  ]
                ]
              },
              {
                "module": "keras.layers",
                "class_name": "BatchNormalization",
                "config": {
                  "name": "block_2_project_BN",
                  "trainable": false,
                  "dtype": "float32",
                  "axis": [
                    3
                  ],
                  "momentum": 0.999,
                  "epsilon": 0.001,
                  "center": true,
                  "scale": true,
                  "beta_initializer": {
                    "module": "keras.initializers",
                    "class_name": "Zeros",
                    "config": {},
                    "registered_name": null
                  },
                  "gamma_initializer": {
                    "module": "keras.initializers",
                    "class_name": "Ones",
                    "config": {},
                    "registered_name": null
                  },
                  "moving_mean_initializer": {
                    "module": "keras.initializers",
                    "class_name": "Zeros",
                    "config": {},
                    "registered_name": null
                  },
                  "moving_variance_initializer": {
                    "module": "keras.initializers",
                    "class_name": "Ones",
                    "config": {},
                    "registered_name": null
                  },
                  "beta_regularizer": null,
                  "gamma_regularizer": null,
                  "beta_constraint": null,
                  "gamma_constraint": null
                },
                "registered_name": null,
                "build_config": {
                  "input_shape": [
                    null,
                    40,
                    40,
                    24
                  ]
                },
                "name": "block_2_project_BN",
                "inbound_nodes": [
                  [
                    [
                      "block_2_project",
                      0,
                      0,
                      {}
                    ]
                  ]
                ]
              },
              {
                "module": "keras.layers",
                "class_name": "Add",
                "config": {
                  "name": "block_2_add",
                  "trainable": false,
                  "dtype": "float32"
                },
                "registered_name": null,
                "build_config": {
                  "input_shape": [
                    [
                      null,
                      40,
                      40,
                      24
                    ],
                    [
                      null,
                      40,
                      40,
                      24
                    ]
                  ]
                },
                "name": "block_2_add",
                "inbound_nodes": [
                  [
                    [
                      "block_1_project_BN",
                      0,
                      0,
                      {}
                    ],
                    [
                      "block_2_project_BN",
                      0,
                      0,
                      {}
                    ]
                  ]
                ]
              },
              {
                "module": "keras.layers",
                "class_name": "Conv2D",
                "config": {
                  "name": "block_3_expand",
                  "trainable": false,
                  "dtype": "float32",
                  "filters": 144,
                  "kernel_size": [
                    1,
                    1
                  ],
                  "strides": [
                    1,
                    1
                  ],
                  "padding": "same",
                  "data_format": "channels_last",
                  "dilation_rate": [
                    1,
                    1
                  ],
                  "groups": 1,
                  "activation": "linear",
                  "use_bias": false,
                  "kernel_initializer": {
                    "module": "keras.initializers",
                    "class_name": "GlorotUniform",
                    "config": {
                      "seed": null
                    },
                    "registered_name": null
                  },
                  "bias_initializer": {
                    "module": "keras.initializers",
                    "class_name": "Zeros",
                    "config": {},
                    "registered_name": null
                  },
                  "kernel_regularizer": null,
                  "bias_regularizer": null,
                  "activity_regularizer": null,
                  "kernel_constraint": null,
                  "bias_constraint": null
                },
                "registered_name": null,
                "build_config": {
                  "input_shape": [
                    null,
                    40,
                    40,
                    24
                  ]
                },
                "name": "block_3_expand",
                "inbound_nodes": [
                  [
                    [
                      "block_2_add",
                      0,
                      0,
                      {}
                    ]
                  ]
                ]
              },
              {
                "module": "keras.layers",
                "class_name": "BatchNormalization",
                "config": {
                  "name": "block_3_expand_BN",
                  "trainable": false,
                  "dtype": "float32",
                  "axis": [
                    3
                  ],
                  "momentum": 0.999,
                  "epsilon": 0.001,
                  "center": true,
                  "scale": true,
                  "beta_initializer": {
                    "module": "keras.initializers",
                    "class_name": "Zeros",
                    "config": {},
                    "registered_name": null
                  },
                  "gamma_initializer": {
                    "module": "keras.initializers",
                    "class_name": "Ones",
                    "config": {},
                    "registered_name": null
                  },
                  "moving_mean_initializer": {
                    "module": "keras.initializers",
                    "class_name": "Zeros",
                    "config": {},
                    "registered_name": null
                  },
                  "moving_variance_initializer": {
                    "module": "keras.initializers",
                    "class_name": "Ones",
                    "config": {},
                    "registered_name": null
                  },
                  "beta_regularizer": null,
                  "gamma_regularizer": null,
                  "beta_constraint": null,
                  "gamma_constraint": null
                },
                "registered_name": null,
                "build_config": {
                  "input_shape": [
                    null,
                    40,
                    40,
                    144
                  ]
                },
                "name": "block_3_expand_BN",
                "inbound_nodes": [
                  [
                    [
                      "block_3_expand",
                      0,
                      0,
                      {}
                    ]
                  ]
                ]
              },
              {
                "module": "keras.layers",
                "class_name": "ReLU",
                "config": {
                  "name": "block_3_expand_relu",
                  "trainable": false,
                  "dtype": "float32",
                  "max_value": 6.0,
                  "negative_slope": 0.0,
                  "threshold": 0.0
                },
                "registered_name": null,
                "name": "block_3_expand_relu",
                "inbound_nodes": [
                  [
                    [
                      "block_3_expand_BN",
                      0,
                      0,
                      {}
                    ]
                  ]
                ]
              },
              {
                "module": "keras.layers",
                "class_name": "ZeroPadding2D",
                "config": {
                  "name": "block_3_pad",
                  "trainable": false,
                  "dtype": "float32",
                  "padding": [
                    [
                      0,
                      1
                    ],
                    [
                      0,
                      1
                    ]
                  ],
                  "data_format": "channels_last"
                },
                "registered_name": null,
                "name": "block_3_pad",
                "inbound_nodes": [
                  [
                    [
                      "block_3_expand_relu",
                      0,
                      0,
                      {}
                    ]
                  ]
                ]
              },
              {
                "module": "keras.layers",
                "class_name": "DepthwiseConv2D",
                "config": {
                  "name": "block_3_depthwise",
                  "trainable": false,
                  "dtype": "float32",
                  "kernel_size": [
                    3,
                    3
                  ],
                  "strides": [
                    2,
                    2
                  ],
                  "padding": "valid",
                  "data_format": "channels_last",
                  "dilation_rate": [
                    1,
                    1
                  ],
                  "groups": 1,
                  "activation": "linear",
                  "use_bias": false,
                  "bias_initializer": {
                    "module": "keras.initializers",
                    "class_name": "Zeros",
                    "config": {},
                    "registered_name": null
                  },
                  "bias_regularizer": null,
                  "activity_regularizer": null,
                  "bias_constraint": null,
                  "depth_multiplier": 1,
                  "depthwise_initializer": {
                    "module": "keras.initializers",
                    "class_name": "GlorotUniform",
                    "config": {
                      "seed": null
                    },
                    "registered_name": null
                  },
                  "depthwise_regularizer": null,
                  "depthwise_constraint": null
                },
                "registered_name": null,
                "build_config": {
                  "input_shape": [
                    null,
                    41,
                    41,
                    144
                  ]
                },
                "name": "block_3_depthwise",
                "inbound_nodes": [
                  [
                    [
                      "block_3_pad",
                      0,
                      0,
                      {}
                    ]
                  ]
                ]
              },
              {
                "module": "keras.layers",
                "class_name": "BatchNormalization",
                "config": {
                  "name": "block_3_depthwise_BN",
                  "trainable": false,
                  "dtype": "float32",
                  "axis": [
                    3
                  ],
                  "momentum": 0.999,
                  "epsilon": 0.001,
                  "center": true,
                  "scale": true,
                  "beta_initializer": {
                    "module": "keras.initializers",
                    "class_name": "Zeros",
                    "config": {},
                    "registered_name": null
                  },
                  "gamma_initializer": {
                    "module": "keras.initializers",
                    "class_name": "Ones",
                    "config": {},
                    "registered_name": null
                  },
                  "moving_mean_initializer": {
                    "module": "keras.initializers",
                    "class_name": "Zeros",
                    "config": {},
                    "registered_name": null
                  },
                  "moving_variance_initializer": {
                    "module": "keras.initializers",
                    "class_name": "Ones",
                    "config": {},
                    "registered_name": null
                  },
                  "beta_regularizer": null,
                  "gamma_regularizer": null,
                  "beta_constraint": null,
                  "gamma_constraint": null
                },
                "registered_name": null,
                "build_config": {
                  "input_shape": [
                    null,
                    20,
                    20,
                    144
                  ]
                },
                "name": "block_3_depthwise_BN",
                "inbound_nodes": [
                  [
                    [
                      "block_3_depthwise",
                      0,
                      0,
                      {}
                    ]
                  ]
                ]
              },
              {
                "module": "keras.layers",
                "class_name": "ReLU",
                "config": {
                  "name": "block_3_depthwise_relu",
                  "trainable": false,
                  "dtype": "float32",
                  "max_value": 6.0,
                  "negative_slope": 0.0,
                  "threshold": 0.0
                },
                "registered_name": null,
                "name": "block_3_depthwise_relu",
                "inbound_nodes": [
                  [
                    [
                      "block_3_depthwise_BN",
                      0,
                      0,
                      {}
                    ]
                  ]
                ]
              },
              {
                "module": "keras.layers",
                "class_name": "Conv2D",
                "config": {
                  "name": "block_3_project",
                  "trainable": false,
                  "dtype": "float32",
                  "filters": 32,
                  "kernel_size": [
                    1,
                    1
                  ],
                  "strides": [
                    1,
                    1
                  ],
                  "padding": "same",
                  "data_format": "channels_last",
                  "dilation_rate": [
                    1,
                    1
                  ],
                  "groups": 1,
                  "activation": "linear",
                  "use_bias": false,
                  "kernel_initializer": {
                    "module": "keras.initializers",
                    "class_name": "GlorotUniform",
                    "config": {
                      "seed": null
                    },
                    "registered_name": null
                  },
                  "bias_initializer": {
                    "module": "keras.initializers",
                    "class_name": "Zeros",
                    "config": {},
                    "registered_name": null
                  },
                  "kernel_regularizer": null,
                  "bias_regularizer": null,
                  "activity_regularizer": null,
                  "kernel_constraint": null,
                  "bias_constraint": null
                },
                "registered_name": null,
                "build_config": {
                  "input_shape": [
                    null,
                    20,
                    20,
                    144
                  ]
                },
                "name": "block_3_project",
                "inbound_nodes": [
                  [
                    [
                      "block_3_depthwise_relu",
                      0,
                      0,
                      {}
                    ]
                  ]
                ]
              },
              {
                "module": "keras.layers",
                "class_name": "BatchNormalization",
                "config": {
                  "name": "block_3_project_BN",
                  "trainable": false,
                  "dtype": "float32",
                  "axis": [
                    3
                  ],
                  "momentum": 0.999,
                  "epsilon": 0.001,
                  "center": true,
                  "scale": true,
                  "beta_initializer": {
                    "module": "keras.initializers",
                    "class_name": "Zeros",
                    "config": {},
                    "registered_name": null
                  },
                  "gamma_initializer": {
                    "module": "keras.initializers",
                    "class_name": "Ones",
                    "config": {},
                    "registered_name": null
                  },
                  "moving_mean_initializer": {
                    "module": "keras.initializers",
                    "class_name": "Zeros",
                    "config": {},
                    "registered_name": null
                  },
                  "moving_variance_initializer": {
                    "module": "keras.initializers",
                    "class_name": "Ones",
                    "config": {},
                    "registered_name": null
                  },
                  "beta_regularizer": null,
                  "gamma_regularizer": null,
                  "beta_constraint": null,
                  "gamma_constraint": null
                },
                "registered_name": null,
                "build_config": {
                  "input_shape": [
                    null,
                    20,
                    20,
                    32
                  ]
                },
                "name": "block_3_project_BN",
                "inbound_nodes": [
                  [
                    [
                      "block_3_project",
                      0,
                      0,
                      {}
                    ]
                  ]
                ]
              },
              {
                "module": "keras.layers",
                "class_name": "Conv2D",
                "config": {
                  "name": "block_4_expand",
                  "trainable": false,
                  "dtype": "float32",
                  "filters": 192,
                  "kernel_size": [
                    1,
                    1
                  ],
                  "strides": [
                    1,
                    1
                  ],
                  "padding": "same",
                  "data_format": "channels_last",
                  "dilation_rate": [
                    1,
                    1
                  ],
                  "groups": 1,
                  "activation": "linear",
                  "use_bias": false,
                  "kernel_initializer": {
                    "module": "keras.initializers",
                    "class_name": "GlorotUniform",
                    "config": {
                      "seed": null
                    },
                    "registered_name": null
                  },
                  "bias_initializer": {
                    "module": "keras.initializers",
                    "class_name": "Zeros",
                    "config": {},
                    "registered_name": null
                  },
                  "kernel_regularizer": null,
                  "bias_regularizer": null,
                  "activity_regularizer": null,
                  "kernel_constraint": null,
                  "bias_constraint": null
                },
                "registered_name": null,
                "build_config": {
                  "input_shape": [
                    null,
                    20,
                    20,
                    32
                  ]
                },
                "name": "block_4_expand",
                "inbound_nodes": [
                  [
                    [
                      "block_3_project_BN",
                      0,
                      0,
                      {}
                    ]
                  ]
                ]
              },
              {
                "module": "keras.layers",
                "class_name": "BatchNormalization",
                "config": {
                  "name": "block_4_expand_BN",
                  "trainable": false,
                  "dtype": "float32",
                  "axis": [
                    3
                  ],
                  "momentum": 0.999,
                  "epsilon": 0.001,
                  "center": true,
                  "scale": true,
                  "beta_initializer": {
                    "module": "keras.initializers",
                    "class_name": "Zeros",
                    "config": {},
                    "registered_name": null
                  },
                  "gamma_initializer": {
                    "module": "keras.initializers",
                    "class_name": "Ones",
                    "config": {},
                    "registered_name": null
                  },
                  "moving_mean_initializer": {
                    "module": "keras.initializers",
                    "class_name": "Zeros",
                    "config": {},
                    "registered_name": null
                  },
                  "moving_variance_initializer": {
                    "module": "keras.initializers",
                    "class_name": "Ones",
                    "config": {},
                    "registered_name": null
                  },
                  "beta_regularizer": null,
                  "gamma_regularizer": null,
                  "beta_constraint": null,
                  "gamma_constraint": null
                },
                "registered_name": null,
                "build_config": {
                  "input_shape": [
                    null,
                    20,
                    20,
                    192
                  ]
                },
                "name": "block_4_expand_BN",
                "inbound_nodes": [
                  [
                    [
                      "block_4_expand",
                      0,
                      0,
                      {}
                    ]
                  ]
                ]
              },
              {
                "module": "keras.layers",
                "class_name": "ReLU",
                "config": {
                  "name": "block_4_expand_relu",
                  "trainable": false,
                  "dtype": "float32",
                  "max_value": 6.0,
                  "negative_slope": 0.0,
                  "threshold": 0.0
                },
                "registered_name": null,
                "name": "block_4_expand_relu",
                "inbound_nodes": [
                  [
                    [
                      "block_4_expand_BN",
                      0,
                      0,
                      {}
                    ]
                  ]
                ]
              },
              {
                "module": "keras.layers",
                "class_name": "DepthwiseConv2D",
                "config": {
                  "name": "block_4_depthwise",
                  "trainable": false,
                  "dtype": "float32",
                  "kernel_size": [
                    3,
                    3
                  ],
                  "strides": [
                    1,
                    1
                  ],
                  "padding": "same",
                  "data_format": "channels_last",
                  "dilation_rate": [
                    1,
                    1
                  ],
                  "groups": 1,
                  "activation": "linear",
                  "use_bias": false,
                  "bias_initializer": {
                    "module": "keras.initializers",
                    "class_name": "Zeros",
                    "config": {},
                    "registered_name": null
                  },
                  "bias_regularizer": null,
                  "activity_regularizer": null,
                  "bias_constraint": null,
                  "depth_multiplier": 1,
                  "depthwise_initializer": {
                    "module": "keras.initializers",
                    "class_name": "GlorotUniform",
                    "config": {
                      "seed": null
                    },
                    "registered_name": null
                  },
                  "depthwise_regularizer": null,
                  "depthwise_constraint": null
                },
                "registered_name": null,
                "build_config": {
                  "input_shape": [
                    null,
                    20,
                    20,
                    192
                  ]
                },
                "name": "block_4_depthwise",
                "inbound_nodes": [
                  [
                    [
                      "block_4_expand_relu",
                      0,
                      0,
                      {}
                    ]
                  ]
                ]
              },
              {
                "module": "keras.layers",
                "class_name": "BatchNormalization",
                "config": {
                  "name": "block_4_depthwise_BN",
                  "trainable": false,
                  "dtype": "float32",
                  "axis": [
                    3
                  ],
                  "momentum": 0.999,
                  "epsilon": 0.001,
                  "center": true,
                  "scale": true,
                  "beta_initializer": {
                    "module": "keras.initializers",
                    "class_name": "Zeros",
                    "config": {},
                    "registered_name": null
                  },
                  "gamma_initializer": {
                    "module": "keras.initializers",
                    "class_name": "Ones",
                    "config": {},
                    "registered_name": null
                  },
                  "moving_mean_initializer": {
                    "module": "keras.initializers",
                    "class_name": "Zeros",
                    "config": {},
                    "registered_name": null
                  },
                  "moving_variance_initializer": {
                    "module": "keras.initializers",
                    "class_name": "Ones",
                    "config": {},
                    "registered_name": null
                  },
                  "beta_regularizer": null,
                  "gamma_regularizer": null,
                  "beta_constraint": null,
                  "gamma_constraint": null
                },
                "registered_name": null,
                "build_config": {
                  "input_shape": [
                    null,
                    20,
                    20,
                    192
                  ]
                },
                "name": "block_4_depthwise_BN",
                "inbound_nodes": [
                  [
                    [
                      "block_4_depthwise",
                      0,
                      0,
                      {}
                    ]
                  ]
                ]
              },
              {
                "module": "keras.layers",
                "class_name": "ReLU",
                "config": {
                  "name": "block_4_depthwise_relu",
                  "trainable": false,
                  "dtype": "float32",
                  "max_value": 6.0,
                  "negative_slope": 0.0,
                  "threshold": 0.0
                },
                "registered_name": null,
                "name": "block_4_depthwise_relu",
                "inbound_nodes": [
                  [
                    [
                      "block_4_depthwise_BN",
                      0,
                      0,
                      {}
                    ]
                  ]
                ]
              },
              {
                "module": "keras.layers",
                "class_name": "Conv2D",
                "config": {
                  "name": "block_4_project",
                  "trainable": false,
                  "dtype": "float32",
                  "filters": 32,
                  "kernel_size": [
                    1,
                    1
                  ],
                  "strides": [
                    1,
                    1
                  ],
                  "padding": "same",
                  "data_format": "channels_last",
                  "dilation_rate": [
                    1,
                    1
                  ],
                  "groups": 1,
                  "activation": "linear",
                  "use_bias": false,
                  "kernel_initializer": {
                    "module": "keras.initializers",
                    "class_name": "GlorotUniform",
                    "config": {
                      "seed": null
                    },
                    "registered_name": null
                  },
                  "bias_initializer": {
                    "module": "keras.initializers",
                    "class_name": "Zeros",
                    "config": {},
                    "registered_name": null
                  },
                  "kernel_regularizer": null,
                  "bias_regularizer": null,
                  "activity_regularizer": null,
                  "kernel_constraint": null,
                  "bias_constraint": null
                },
                "registered_name": null,
                "build_config": {
                  "input_shape": [
                    null,
                    20,
                    20,
                    192
                  ]
                },
                "name": "block_4_project",
                "inbound_nodes": [
                  [
                    [
                      "block_4_depthwise_relu",
                      0,
                      0,
                      {}
                    ]
                  ]
                ]
              },
              {
                "module": "keras.layers",
                "class_name": "BatchNormalization",
                "config": {
                  "name": "block_4_project_BN",
                  "trainable": false,
                  "dtype": "float32",
                  "axis": [
                    3
                  ],
                  "momentum": 0.999,
                  "epsilon": 0.001,
                  "center": true,
                  "scale": true,
                  "beta_initializer": {
                    "module": "keras.initializers",
                    "class_name": "Zeros",
                    "config": {},
                    "registered_name": null
                  },
                  "gamma_initializer": {
                    "module": "keras.initializers",
                    "class_name": "Ones",
                    "config": {},
                    "registered_name": null
                  },
                  "moving_mean_initializer": {
                    "module": "keras.initializers",
                    "class_name": "Zeros",
                    "config": {},
                    "registered_name": null
                  },
                  "moving_variance_initializer": {
                    "module": "keras.initializers",
                    "class_name": "Ones",
                    "config": {},
                    "registered_name": null
                  },
                  "beta_regularizer": null,
                  "gamma_regularizer": null,
                  "beta_constraint": null,
                  "gamma_constraint": null
                },
                "registered_name": null,
                "build_config": {
                  "input_shape": [
                    null,
                    20,
                    20,
                    32
                  ]
                },
                "name": "block_4_project_BN",
                "inbound_nodes": [
                  [
                    [
                      "block_4_project",
                      0,
                      0,
                      {}
                    ]
                  ]
                ]
              },
              {
                "module": "keras.layers",
                "class_name": "Add",
                "config": {
                  "name": "block_4_add",
                  "trainable": false,
                  "dtype": "float32"
                },
                "registered_name": null,
                "build_config": {
                  "input_shape": [
                    [
                      null,
                      20,
                      20,
                      32
                    ],
                    [
                      null,
                      20,
                      20,
                      32
                    ]
                  ]
                },
                "name": "block_4_add",
                "inbound_nodes": [
                  [
                    [
                      "block_3_project_BN",
                      0,
                      0,
                      {}
                    ],
                    [
                      "block_4_project_BN",
                      0,
                      0,
                      {}
                    ]
                  ]
                ]
              },
              {
                "module": "keras.layers",
                "class_name": "Conv2D",
                "config": {
                  "name": "block_5_expand",
                  "trainable": false,
                  "dtype": "float32",
                  "filters": 192,
                  "kernel_size": [
                    1,
                    1
                  ],
                  "strides": [
                    1,
                    1
                  ],
                  "padding": "same",
                  "data_format": "channels_last",
                  "dilation_rate": [
                    1,
                    1
                  ],
                  "groups": 1,
                  "activation": "linear",
                  "use_bias": false,
                  "kernel_initializer": {
                    "module": "keras.initializers",
                    "class_name": "GlorotUniform",
                    "config": {
                      "seed": null
                    },
                    "registered_name": null
                  },
                  "bias_initializer": {
                    "module": "keras.initializers",
                    "class_name": "Zeros",
                    "config": {},
                    "registered_name": null
                  },
                  "kernel_regularizer": null,
                  "bias_regularizer": null,
                  "activity_regularizer": null,
                  "kernel_constraint": null,
                  "bias_constraint": null
                },
                "registered_name": null,
                "build_config": {
                  "input_shape": [
                    null,
                    20,
                    20,
                    32
                  ]
                },
                "name": "block_5_expand",
                "inbound_nodes": [
                  [
                    [
                      "block_4_add",
                      0,
                      0,
                      {}
                    ]
                  ]
                ]
              },
              {
                "module": "keras.layers",
                "class_name": "BatchNormalization",
                "config": {
                  "name": "block_5_expand_BN",
                  "trainable": false,
                  "dtype": "float32",
                  "axis": [
                    3
                  ],
                  "momentum": 0.999,
                  "epsilon": 0.001,
                  "center": true,
                  "scale": true,
                  "beta_initializer": {
                    "module": "keras.initializers",
                    "class_name": "Zeros",
                    "config": {},
                    "registered_name": null
                  },
                  "gamma_initializer": {
                    "module": "keras.initializers",
                    "class_name": "Ones",
                    "config": {},
                    "registered_name": null
                  },
                  "moving_mean_initializer": {
                    "module": "keras.initializers",
                    "class_name": "Zeros",
                    "config": {},
                    "registered_name": null
                  },
                  "moving_variance_initializer": {
                    "module": "keras.initializers",
                    "class_name": "Ones",
                    "config": {},
                    "registered_name": null
                  },
                  "beta_regularizer": null,
                  "gamma_regularizer": null,
                  "beta_constraint": null,
                  "gamma_constraint": null
                },
                "registered_name": null,
                "build_config": {
                  "input_shape": [
                    null,
                    20,
                    20,
                    192
                  ]
                },
                "name": "block_5_expand_BN",
                "inbound_nodes": [
                  [
                    [
                      "block_5_expand",
                      0,
                      0,
                      {}
                    ]
                  ]
                ]
              },
              {
                "module": "keras.layers",
                "class_name": "ReLU",
                "config": {
                  "name": "block_5_expand_relu",
                  "trainable": false,
                  "dtype": "float32",
                  "max_value": 6.0,
                  "negative_slope": 0.0,
                  "threshold": 0.0
                },
                "registered_name": null,
                "name": "block_5_expand_relu",
                "inbound_nodes": [
                  [
                    [
                      "block_5_expand_BN",
                      0,
                      0,
                      {}
                    ]
                  ]
                ]
              },
              {
                "module": "keras.layers",
                "class_name": "DepthwiseConv2D",
                "config": {
                  "name": "block_5_depthwise",
                  "trainable": false,
                  "dtype": "float32",
                  "kernel_size": [
                    3,
                    3
                  ],
                  "strides": [
                    1,
                    1
                  ],
                  "padding": "same",
                  "data_format": "channels_last",
                  "dilation_rate": [
                    1,
                    1
                  ],
                  "groups": 1,
                  "activation": "linear",
                  "use_bias": false,
                  "bias_initializer": {
                    "module": "keras.initializers",
                    "class_name": "Zeros",
                    "config": {},
                    "registered_name": null
                  },
                  "bias_regularizer": null,
                  "activity_regularizer": null,
                  "bias_constraint": null,
                  "depth_multiplier": 1,
                  "depthwise_initializer": {
                    "module": "keras.initializers",
                    "class_name": "GlorotUniform",
                    "config": {
                      "seed": null
                    },
                    "registered_name": null
                  },
                  "depthwise_regularizer": null,
                  "depthwise_constraint": null
                },
                "registered_name": null,
                "build_config": {
                  "input_shape": [
                    null,
                    20,
                    20,
                    192
                  ]
                },
                "name": "block_5_depthwise",
                "inbound_nodes": [
                  [
                    [
                      "block_5_expand_relu",
                      0,
                      0,
                      {}
                    ]
                  ]
                ]
              },
              {
                "module": "keras.layers",
                "class_name": "BatchNormalization",
                "config": {
                  "name": "block_5_depthwise_BN",
                  "trainable": false,
                  "dtype": "float32",
                  "axis": [
                    3
                  ],
                  "momentum": 0.999,
                  "epsilon": 0.001,
                  "center": true,
                  "scale": true,
                  "beta_initializer": {
                    "module": "keras.initializers",
                    "class_name": "Zeros",
                    "config": {},
                    "registered_name": null
                  },
                  "gamma_initializer": {
                    "module": "keras.initializers",
                    "class_name": "Ones",
                    "config": {},
                    "registered_name": null
                  },
                  "moving_mean_initializer": {
                    "module": "keras.initializers",
                    "class_name": "Zeros",
                    "config": {},
                    "registered_name": null
                  },
                  "moving_variance_initializer": {
                    "module": "keras.initializers",
                    "class_name": "Ones",
                    "config": {},
                    "registered_name": null
                  },
                  "beta_regularizer": null,
                  "gamma_regularizer": null,
                  "beta_constraint": null,
                  "gamma_constraint": null
                },
                "registered_name": null,
                "build_config": {
                  "input_shape": [
                    null,
                    20,
                    20,
                    192
                  ]
                },
                "name": "block_5_depthwise_BN",
                "inbound_nodes": [
                  [
                    [
                      "block_5_depthwise",
                      0,
                      0,
                      {}
                    ]
                  ]
                ]
              },
              {
                "module": "keras.layers",
                "class_name": "ReLU",
                "config": {
                  "name": "block_5_depthwise_relu",
                  "trainable": false,
                  "dtype": "float32",
                  "max_value": 6.0,
                  "negative_slope": 0.0,
                  "threshold": 0.0
                },
                "registered_name": null,
                "name": "block_5_depthwise_relu",
                "inbound_nodes": [
                  [
                    [
                      "block_5_depthwise_BN",
                      0,
                      0,
                      {}
                    ]
                  ]
                ]
              },
              {
                "module": "keras.layers",
                "class_name": "Conv2D",
                "config": {
                  "name": "block_5_project",
                  "trainable": false,
                  "dtype": "float32",
                  "filters": 32,
                  "kernel_size": [
                    1,
                    1
                  ],
                  "strides": [
                    1,
                    1
                  ],
                  "padding": "same",
                  "data_format": "channels_last",
                  "dilation_rate": [
                    1,
                    1
                  ],
                  "groups": 1,
                  "activation": "linear",
                  "use_bias": false,
                  "kernel_initializer": {
                    "module": "keras.initializers",
                    "class_name": "GlorotUniform",
                    "config": {
                      "seed": null
                    },
                    "registered_name": null
                  },
                  "bias_initializer": {
                    "module": "keras.initializers",
                    "class_name": "Zeros",
                    "config": {},
                    "registered_name": null
                  },
                  "kernel_regularizer": null,
                  "bias_regularizer": null,
                  "activity_regularizer": null,
                  "kernel_constraint": null,
                  "bias_constraint": null
                },
                "registered_name": null,
                "build_config": {
                  "input_shape": [
                    null,
                    20,
                    20,
                    192
                  ]
                },
                "name": "block_5_project",
                "inbound_nodes": [
                  [
                    [
                      "block_5_depthwise_relu",
                      0,
                      0,
                      {}
                    ]
                  ]
                ]
              },
              {
                "module": "keras.layers",
                "class_name": "BatchNormalization",
                "config": {
                  "name": "block_5_project_BN",
                  "trainable": false,
                  "dtype": "float32",
                  "axis": [
                    3
                  ],
                  "momentum": 0.999,
                  "epsilon": 0.001,
                  "center": true,
                  "scale": true,
                  "beta_initializer": {
                    "module": "keras.initializers",
                    "class_name": "Zeros",
                    "config": {},
                    "registered_name": null
                  },
                  "gamma_initializer": {
                    "module": "keras.initializers",
                    "class_name": "Ones",
                    "config": {},
                    "registered_name": null
                  },
                  "moving_mean_initializer": {
                    "module": "keras.initializers",
                    "class_name": "Zeros",
                    "config": {},
                    "registered_name": null
                  },
                  "moving_variance_initializer": {
                    "module": "keras.initializers",
                    "class_name": "Ones",
                    "config": {},
                    "registered_name": null
                  },
                  "beta_regularizer": null,
                  "gamma_regularizer": null,
                  "beta_constraint": null,
                  "gamma_constraint": null
                },
                "registered_name": null,
                "build_config": {
                  "input_shape": [
                    null,
                    20,
                    20,
                    32
                  ]
                },
                "name": "block_5_project_BN",
                "inbound_nodes": [
                  [
                    [
                      "block_5_project",
                      0,
                      0,
                      {}
                    ]
                  ]
                ]
              },
              {
                "module": "keras.layers",
                "class_name": "Add",
                "config": {
                  "name": "block_5_add",
                  "trainable": false,
                  "dtype": "float32"
                },
                "registered_name": null,
                "build_config": {
                  "input_shape": [
                    [
                      null,
                      20,
                      20,
                      32
                    ],
                    [
                      null,
                      20,
                      20,
                      32
                    ]
                  ]
                },
                "name": "block_5_add",
                "inbound_nodes": [
                  [
                    [
                      "block_4_add",
                      0,
                      0,
                      {}
                    ],
                    [
                      "block_5_project_BN",
                      0,
                      0,
                      {}
                    ]
                  ]
                ]
              },
              {
                "module": "keras.layers",
                "class_name": "Conv2D",
                "config": {
                  "name": "block_6_expand",
                  "trainable": false,
                  "dtype": "float32",
                  "filters": 192,
                  "kernel_size": [
                    1,
                    1
                  ],
                  "strides": [
                    1,
                    1
                  ],
                  "padding": "same",
                  "data_format": "channels_last",
                  "dilation_rate": [
                    1,
                    1
                  ],
                  "groups": 1,
                  "activation": "linear",
                  "use_bias": false,
                  "kernel_initializer": {
                    "module": "keras.initializers",
                    "class_name": "GlorotUniform",
                    "config": {
                      "seed": null
                    },
                    "registered_name": null
                  },
                  "bias_initializer": {
                    "module": "keras.initializers",
                    "class_name": "Zeros",
                    "config": {},
                    "registered_name": null
                  },
                  "kernel_regularizer": null,
                  "bias_regularizer": null,
                  "activity_regularizer": null,
                  "kernel_constraint": null,
                  "bias_constraint": null
                },
                "registered_name": null,
                "build_config": {
                  "input_shape": [
                    null,
                    20,
                    20,
                    32
                  ]
                },
                "name": "block_6_expand",
                "inbound_nodes": [
                  [
                    [
                      "block_5_add",
                      0,
                      0,
                      {}
                    ]
                  ]
                ]
              },
              {
                "module": "keras.layers",
                "class_name": "BatchNormalization",
                "config": {
                  "name": "block_6_expand_BN",
                  "trainable": false,
                  "dtype": "float32",
                  "axis": [
                    3
                  ],
                  "momentum": 0.999,
                  "epsilon": 0.001,
                  "center": true,
                  "scale": true,
                  "beta_initializer": {
                    "module": "keras.initializers",
                    "class_name": "Zeros",
                    "config": {},
                    "registered_name": null
                  },
                  "gamma_initializer": {
                    "module": "keras.initializers",
                    "class_name": "Ones",
                    "config": {},
                    "registered_name": null
                  },
                  "moving_mean_initializer": {
                    "module": "keras.initializers",
                    "class_name": "Zeros",
                    "config": {},
                    "registered_name": null
                  },
                  "moving_variance_initializer": {
                    "module": "keras.initializers",
                    "class_name": "Ones",
                    "config": {},
                    "registered_name": null
                  },
                  "beta_regularizer": null,
                  "gamma_regularizer": null,
                  "beta_constraint": null,
                  "gamma_constraint": null
                },
                "registered_name": null,
                "build_config": {
                  "input_shape": [
                    null,
                    20,
                    20,
                    192
                  ]
                },
                "name": "block_6_expand_BN",
                "inbound_nodes": [
                  [
                    [
                      "block_6_expand",
                      0,
                      0,
                      {}
                    ]
                  ]
                ]
              },
              {
                "module": "keras.layers",
                "class_name": "ReLU",
                "config": {
                  "name": "block_6_expand_relu",
                  "trainable": false,
                  "dtype": "float32",
                  "max_value": 6.0,
                  "negative_slope": 0.0,
                  "threshold": 0.0
                },
                "registered_name": null,
                "name": "block_6_expand_relu",
                "inbound_nodes": [
                  [
                    [
                      "block_6_expand_BN",
                      0,
                      0,
                      {}
                    ]
                  ]
                ]
              },
              {
                "module": "keras.layers",
                "class_name": "ZeroPadding2D",
                "config": {
                  "name": "block_6_pad",
                  "trainable": false,
                  "dtype": "float32",
                  "padding": [
                    [
                      0,
                      1
                    ],
                    [
                      0,
                      1
                    ]
                  ],
                  "data_format": "channels_last"
                },
                "registered_name": null,
                "name": "block_6_pad",
                "inbound_nodes": [
                  [
                    [
                      "block_6_expand_relu",
                      0,
                      0,
                      {}
                    ]
                  ]
                ]
              },
              {
                "module": "keras.layers",
                "class_name": "DepthwiseConv2D",
                "config": {
                  "name": "block_6_depthwise",
                  "trainable": false,
                  "dtype": "float32",
                  "kernel_size": [
                    3,
                    3
                  ],
                  "strides": [
                    2,
                    2
                  ],
                  "padding": "valid",
                  "data_format": "channels_last",
                  "dilation_rate": [
                    1,
                    1
                  ],
                  "groups": 1,
                  "activation": "linear",
                  "use_bias": false,
                  "bias_initializer": {
                    "module": "keras.initializers",
                    "class_name": "Zeros",
                    "config": {},
                    "registered_name": null
                  },
                  "bias_regularizer": null,
                  "activity_regularizer": null,
                  "bias_constraint": null,
                  "depth_multiplier": 1,
                  "depthwise_initializer": {
                    "module": "keras.initializers",
                    "class_name": "GlorotUniform",
                    "config": {
                      "seed": null
                    },
                    "registered_name": null
                  },
                  "depthwise_regularizer": null,
                  "depthwise_constraint": null
                },
                "registered_name": null,
                "build_config": {
                  "input_shape": [
                    null,
                    21,
                    21,
                    192
                  ]
                },
                "name": "block_6_depthwise",
                "inbound_nodes": [
                  [
                    [
                      "block_6_pad",
                      0,
                      0,
                      {}
                    ]
                  ]
                ]
              },
              {
                "module": "keras.layers",
                "class_name": "BatchNormalization",
                "config": {
                  "name": "block_6_depthwise_BN",
                  "trainable": false,
                  "dtype": "float32",
                  "axis": [
                    3
                  ],
                  "momentum": 0.999,
                  "epsilon": 0.001,
                  "center": true,
                  "scale": true,
                  "beta_initializer": {
                    "module": "keras.initializers",
                    "class_name": "Zeros",
                    "config": {},
                    "registered_name": null
                  },
                  "gamma_initializer": {
                    "module": "keras.initializers",
                    "class_name": "Ones",
                    "config": {},
                    "registered_name": null
                  },
                  "moving_mean_initializer": {
                    "module": "keras.initializers",
                    "class_name": "Zeros",
                    "config": {},
                    "registered_name": null
                  },
                  "moving_variance_initializer": {
                    "module": "keras.initializers",
                    "class_name": "Ones",
                    "config": {},
                    "registered_name": null
                  },
                  "beta_regularizer": null,
                  "gamma_regularizer": null,
                  "beta_constraint": null,
                  "gamma_constraint": null
                },
                "registered_name": null,
                "build_config": {
                  "input_shape": [
                    null,
                    10,
                    10,
                    192
                  ]
                },
                "name": "block_6_depthwise_BN",
                "inbound_nodes": [
                  [
                    [
                      "block_6_depthwise",
                      0,
                      0,
                      {}
                    ]
                  ]
                ]
              },
              {
                "module": "keras.layers",
                "class_name": "ReLU",
                "config": {
                  "name": "block_6_depthwise_relu",
                  "trainable": false,
                  "dtype": "float32",
                  "max_value": 6.0,
                  "negative_slope": 0.0,
                  "threshold": 0.0
                },
                "registered_name": null,
                "name": "block_6_depthwise_relu",
                "inbound_nodes": [
                  [
                    [
                      "block_6_depthwise_BN",
                      0,
                      0,
                      {}
                    ]
                  ]
                ]
              },
              {
                "module": "keras.layers",
                "class_name": "Conv2D",
                "config": {
                  "name": "block_6_project",
                  "trainable": false,
                  "dtype": "float32",
                  "filters": 64,
                  "kernel_size": [
                    1,
                    1
                  ],
                  "strides": [
                    1,
                    1
                  ],
                  "padding": "same",
                  "data_format": "channels_last",
                  "dilation_rate": [
                    1,
                    1
                  ],
                  "groups": 1,
                  "activation": "linear",
                  "use_bias": false,
                  "kernel_initializer": {
                    "module": "keras.initializers",
                    "class_name": "GlorotUniform",
                    "config": {
                      "seed": null
                    },
                    "registered_name": null
                  },
                  "bias_initializer": {
                    "module": "keras.initializers",
                    "class_name": "Zeros",
                    "config": {},
                    "registered_name": null
                  },
                  "kernel_regularizer": null,
                  "bias_regularizer": null,
                  "activity_regularizer": null,
                  "kernel_constraint": null,
                  "bias_constraint": null
                },
                "registered_name": null,
                "build_config": {
                  "input_shape": [
                    null,
                    10,
                    10,
                    192
                  ]
                },
                "name": "block_6_project",
                "inbound_nodes": [
                  [
                    [
                      "block_6_depthwise_relu",
                      0,
                      0,
                      {}
                    ]
                  ]
                ]
              },
              {
                "module": "keras.layers",
                "class_name": "BatchNormalization",
                "config": {
                  "name": "block_6_project_BN",
                  "trainable": false,
                  "dtype": "float32",
                  "axis": [
                    3
                  ],
                  "momentum": 0.999,
                  "epsilon": 0.001,
                  "center": true,
                  "scale": true,
                  "beta_initializer": {
                    "module": "keras.initializers",
                    "class_name": "Zeros",
                    "config": {},
                    "registered_name": null
                  },
                  "gamma_initializer": {
                    "module": "keras.initializers",
                    "class_name": "Ones",
                    "config": {},
                    "registered_name": null
                  },
                  "moving_mean_initializer": {
                    "module": "keras.initializers",
                    "class_name": "Zeros",
                    "config": {},
                    "registered_name": null
                  },
                  "moving_variance_initializer": {
                    "module": "keras.initializers",
                    "class_name": "Ones",
                    "config": {},
                    "registered_name": null
                  },
                  "beta_regularizer": null,
                  "gamma_regularizer": null,
                  "beta_constraint": null,
                  "gamma_constraint": null
                },
                "registered_name": null,
                "build_config": {
                  "input_shape": [
                    null,
                    10,
                    10,
                    64
                  ]
                },
                "name": "block_6_project_BN",
                "inbound_nodes": [
                  [
                    [
                      "block_6_project",
                      0,
                      0,
                      {}
                    ]
                  ]
                ]
              },
              {
                "module": "keras.layers",
                "class_name": "Conv2D",
                "config": {
                  "name": "block_7_expand",
                  "trainable": false,
                  "dtype": "float32",
                  "filters": 384,
                  "kernel_size": [
                    1,
                    1
                  ],
                  "strides": [
                    1,
                    1
                  ],
                  "padding": "same",
                  "data_format": "channels_last",
                  "dilation_rate": [
                    1,
                    1
                  ],
                  "groups": 1,
                  "activation": "linear",
                  "use_bias": false,
                  "kernel_initializer": {
                    "module": "keras.initializers",
                    "class_name": "GlorotUniform",
                    "config": {
                      "seed": null
                    },
                    "registered_name": null
                  },
                  "bias_initializer": {
                    "module": "keras.initializers",
                    "class_name": "Zeros",
                    "config": {},
                    "registered_name": null
                  },
                  "kernel_regularizer": null,
                  "bias_regularizer": null,
                  "activity_regularizer": null,
                  "kernel_constraint": null,
                  "bias_constraint": null
                },
                "registered_name": null,
                "build_config": {
                  "input_shape": [
                    null,
                    10,
                    10,
                    64
                  ]
                },
                "name": "block_7_expand",
                "inbound_nodes": [
                  [
                    [
                      "block_6_project_BN",
                      0,
                      0,
                      {}
                    ]
                  ]
                ]
              },
              {
                "module": "keras.layers",
                "class_name": "BatchNormalization",
                "config": {
                  "name": "block_7_expand_BN",
                  "trainable": false,
                  "dtype": "float32",
                  "axis": [
                    3
                  ],
                  "momentum": 0.999,
                  "epsilon": 0.001,
                  "center": true,
                  "scale": true,
                  "beta_initializer": {
                    "module": "keras.initializers",
                    "class_name": "Zeros",
                    "config": {},
                    "registered_name": null
                  },
                  "gamma_initializer": {
                    "module": "keras.initializers",
                    "class_name": "Ones",
                    "config": {},
                    "registered_name": null
                  },
                  "moving_mean_initializer": {
                    "module": "keras.initializers",
                    "class_name": "Zeros",
                    "config": {},
                    "registered_name": null
                  },
                  "moving_variance_initializer": {
                    "module": "keras.initializers",
                    "class_name": "Ones",
                    "config": {},
                    "registered_name": null
                  },
                  "beta_regularizer": null,
                  "gamma_regularizer": null,
                  "beta_constraint": null,
                  "gamma_constraint": null
                },
                "registered_name": null,
                "build_config": {
                  "input_shape": [
                    null,
                    10,
                    10,
                    384
                  ]
                },
                "name": "block_7_expand_BN",
                "inbound_nodes": [
                  [
                    [
                      "block_7_expand",
                      0,
                      0,
                      {}
                    ]
                  ]
                ]
              },
              {
                "module": "keras.layers",
                "class_name": "ReLU",
                "config": {
                  "name": "block_7_expand_relu",
                  "trainable": false,
                  "dtype": "float32",
                  "max_value": 6.0,
                  "negative_slope": 0.0,
                  "threshold": 0.0
                },
                "registered_name": null,
                "name": "block_7_expand_relu",
                "inbound_nodes": [
                  [
                    [
                      "block_7_expand_BN",
                      0,
                      0,
                      {}
                    ]
                  ]
                ]
              },
              {
                "module": "keras.layers",
                "class_name": "DepthwiseConv2D",
                "config": {
                  "name": "block_7_depthwise",
                  "trainable": false,
                  "dtype": "float32",
                  "kernel_size": [
                    3,
                    3
                  ],
                  "strides": [
                    1,
                    1
                  ],
                  "padding": "same",
                  "data_format": "channels_last",
                  "dilation_rate": [
                    1,
                    1
                  ],
                  "groups": 1,
                  "activation": "linear",
                  "use_bias": false,
                  "bias_initializer": {
                    "module": "keras.initializers",
                    "class_name": "Zeros",
                    "config": {},
                    "registered_name": null
                  },
                  "bias_regularizer": null,
                  "activity_regularizer": null,
                  "bias_constraint": null,
                  "depth_multiplier": 1,
                  "depthwise_initializer": {
                    "module": "keras.initializers",
                    "class_name": "GlorotUniform",
                    "config": {
                      "seed": null
                    },
                    "registered_name": null
                  },
                  "depthwise_regularizer": null,
                  "depthwise_constraint": null
                },
                "registered_name": null,
                "build_config": {
                  "input_shape": [
                    null,
                    10,
                    10,
                    384
                  ]
                },
                "name": "block_7_depthwise",
                "inbound_nodes": [
                  [
                    [
                      "block_7_expand_relu",
                      0,
                      0,
                      {}
                    ]
                  ]
                ]
              },
              {
                "module": "keras.layers",
                "class_name": "BatchNormalization",
                "config": {
                  "name": "block_7_depthwise_BN",
                  "trainable": false,
                  "dtype": "float32",
                  "axis": [
                    3
                  ],
                  "momentum": 0.999,
                  "epsilon": 0.001,
                  "center": true,
                  "scale": true,
                  "beta_initializer": {
                    "module": "keras.initializers",
                    "class_name": "Zeros",
                    "config": {},
                    "registered_name": null
                  },
                  "gamma_initializer": {
                    "module": "keras.initializers",
                    "class_name": "Ones",
                    "config": {},
                    "registered_name": null
                  },
                  "moving_mean_initializer": {
                    "module": "keras.initializers",
                    "class_name": "Zeros",
                    "config": {},
                    "registered_name": null
                  },
                  "moving_variance_initializer": {
                    "module": "keras.initializers",
                    "class_name": "Ones",
                    "config": {},
                    "registered_name": null
                  },
                  "beta_regularizer": null,
                  "gamma_regularizer": null,
                  "beta_constraint": null,
                  "gamma_constraint": null
                },
                "registered_name": null,
                "build_config": {
                  "input_shape": [
                    null,
                    10,
                    10,
                    384
                  ]
                },
                "name": "block_7_depthwise_BN",
                "inbound_nodes": [
                  [
                    [
                      "block_7_depthwise",
                      0,
                      0,
                      {}
                    ]
                  ]
                ]
              },
              {
                "module": "keras.layers",
                "class_name": "ReLU",
                "config": {
                  "name": "block_7_depthwise_relu",
                  "trainable": false,
                  "dtype": "float32",
                  "max_value": 6.0,
                  "negative_slope": 0.0,
                  "threshold": 0.0
                },
                "registered_name": null,
                "name": "block_7_depthwise_relu",
                "inbound_nodes": [
                  [
                    [
                      "block_7_depthwise_BN",
                      0,
                      0,
                      {}
                    ]
                  ]
                ]
              },
              {
                "module": "keras.layers",
                "class_name": "Conv2D",
                "config": {
                  "name": "block_7_project",
                  "trainable": false,
                  "dtype": "float32",
                  "filters": 64,
                  "kernel_size": [
                    1,
                    1
                  ],
                  "strides": [
                    1,
                    1
                  ],
                  "padding": "same",
                  "data_format": "channels_last",
                  "dilation_rate": [
                    1,
                    1
                  ],
                  "groups": 1,
                  "activation": "linear",
                  "use_bias": false,
                  "kernel_initializer": {
                    "module": "keras.initializers",
                    "class_name": "GlorotUniform",
                    "config": {
                      "seed": null
                    },
                    "registered_name": null
                  },
                  "bias_initializer": {
                    "module": "keras.initializers",
                    "class_name": "Zeros",
                    "config": {},
                    "registered_name": null
                  },
                  "kernel_regularizer": null,
                  "bias_regularizer": null,
                  "activity_regularizer": null,
                  "kernel_constraint": null,
                  "bias_constraint": null
                },
                "registered_name": null,
                "build_config": {
                  "input_shape": [
                    null,
                    10,
                    10,
                    384
                  ]
                },
                "name": "block_7_project",
                "inbound_nodes": [
                  [
                    [
                      "block_7_depthwise_relu",
                      0,
                      0,
                      {}
                    ]
                  ]
                ]
              },
              {
                "module": "keras.layers",
                "class_name": "BatchNormalization",
                "config": {
                  "name": "block_7_project_BN",
                  "trainable": false,
                  "dtype": "float32",
                  "axis": [
                    3
                  ],
                  "momentum": 0.999,
                  "epsilon": 0.001,
                  "center": true,
                  "scale": true,
                  "beta_initializer": {
                    "module": "keras.initializers",
                    "class_name": "Zeros",
                    "config": {},
                    "registered_name": null
                  },
                  "gamma_initializer": {
                    "module": "keras.initializers",
                    "class_name": "Ones",
                    "config": {},
                    "registered_name": null
                  },
                  "moving_mean_initializer": {
                    "module": "keras.initializers",
                    "class_name": "Zeros",
                    "config": {},
                    "registered_name": null
                  },
                  "moving_variance_initializer": {
                    "module": "keras.initializers",
                    "class_name": "Ones",
                    "config": {},
                    "registered_name": null
                  },
                  "beta_regularizer": null,
                  "gamma_regularizer": null,
                  "beta_constraint": null,
                  "gamma_constraint": null
                },
                "registered_name": null,
                "build_config": {
                  "input_shape": [
                    null,
                    10,
                    10,
                    64
                  ]
                },
                "name": "block_7_project_BN",
                "inbound_nodes": [
                  [
                    [
                      "block_7_project",
                      0,
                      0,
                      {}
                    ]
                  ]
                ]
              },
              {
                "module": "keras.layers",
                "class_name": "Add",
                "config": {
                  "name": "block_7_add",
                  "trainable": false,
                  "dtype": "float32"
                },
                "registered_name": null,
                "build_config": {
                  "input_shape": [
                    [
                      null,
                      10,
                      10,
                      64
                    ],
                    [
                      null,
                      10,
                      10,
                      64
                    ]
                  ]
                },
                "name": "block_7_add",
                "inbound_nodes": [
                  [
                    [
                      "block_6_project_BN",
                      0,
                      0,
                      {}
                    ],
                    [
                      "block_7_project_BN",
                      0,
                      0,
                      {}
                    ]
                  ]
                ]
              },
              {
                "module": "keras.layers",
                "class_name": "Conv2D",
                "config": {
                  "name": "block_8_expand",
                  "trainable": false,
                  "dtype": "float32",
                  "filters": 384,
                  "kernel_size": [
                    1,
                    1
                  ],
                  "strides": [
                    1,
                    1
                  ],
                  "padding": "same",
                  "data_format": "channels_last",
                  "dilation_rate": [
                    1,
                    1
                  ],
                  "groups": 1,
                  "activation": "linear",
                  "use_bias": false,
                  "kernel_initializer": {
                    "module": "keras.initializers",
                    "class_name": "GlorotUniform",
                    "config": {
                      "seed": null
                    },
                    "registered_name": null
                  },
                  "bias_initializer": {
                    "module": "keras.initializers",
                    "class_name": "Zeros",
                    "config": {},
                    "registered_name": null
                  },
                  "kernel_regularizer": null,
                  "bias_regularizer": null,
                  "activity_regularizer": null,
                  "kernel_constraint": null,
                  "bias_constraint": null
                },
                "registered_name": null,
                "build_config": {
                  "input_shape": [
                    null,
                    10,
                    10,
                    64
                  ]
                },
                "name": "block_8_expand",
                "inbound_nodes": [
                  [
                    [
                      "block_7_add",
                      0,
                      0,
                      {}
                    ]
                  ]
                ]
              },
              {
                "module": "keras.layers",
                "class_name": "BatchNormalization",
                "config": {
                  "name": "block_8_expand_BN",
                  "trainable": false,
                  "dtype": "float32",
                  "axis": [
                    3
                  ],
                  "momentum": 0.999,
                  "epsilon": 0.001,
                  "center": true,
                  "scale": true,
                  "beta_initializer": {
                    "module": "keras.initializers",
                    "class_name": "Zeros",
                    "config": {},
                    "registered_name": null
                  },
                  "gamma_initializer": {
                    "module": "keras.initializers",
                    "class_name": "Ones",
                    "config": {},
                    "registered_name": null
                  },
                  "moving_mean_initializer": {
                    "module": "keras.initializers",
                    "class_name": "Zeros",
                    "config": {},
                    "registered_name": null
                  },
                  "moving_variance_initializer": {
                    "module": "keras.initializers",
                    "class_name": "Ones",
                    "config": {},
                    "registered_name": null
                  },
                  "beta_regularizer": null,
                  "gamma_regularizer": null,
                  "beta_constraint": null,
                  "gamma_constraint": null
                },
                "registered_name": null,
                "build_config": {
                  "input_shape": [
                    null,
                    10,
                    10,
                    384
                  ]
                },
                "name": "block_8_expand_BN",
                "inbound_nodes": [
                  [
                    [
                      "block_8_expand",
                      0,
                      0,
                      {}
                    ]
                  ]
                ]
              },
              {
                "module": "keras.layers",
                "class_name": "ReLU",
                "config": {
                  "name": "block_8_expand_relu",
                  "trainable": false,
                  "dtype": "float32",
                  "max_value": 6.0,
                  "negative_slope": 0.0,
                  "threshold": 0.0
                },
                "registered_name": null,
                "name": "block_8_expand_relu",
                "inbound_nodes": [
                  [
                    [
                      "block_8_expand_BN",
                      0,
                      0,
                      {}
                    ]
                  ]
                ]
              },
              {
                "module": "keras.layers",
                "class_name": "DepthwiseConv2D",
                "config": {
                  "name": "block_8_depthwise",
                  "trainable": false,
                  "dtype": "float32",
                  "kernel_size": [
                    3,
                    3
                  ],
                  "strides": [
                    1,
                    1
                  ],
                  "padding": "same",
                  "data_format": "channels_last",
                  "dilation_rate": [
                    1,
                    1
                  ],
                  "groups": 1,
                  "activation": "linear",
                  "use_bias": false,
                  "bias_initializer": {
                    "module": "keras.initializers",
                    "class_name": "Zeros",
                    "config": {},
                    "registered_name": null
                  },
                  "bias_regularizer": null,
                  "activity_regularizer": null,
                  "bias_constraint": null,
                  "depth_multiplier": 1,
                  "depthwise_initializer": {
                    "module": "keras.initializers",
                    "class_name": "GlorotUniform",
                    "config": {
                      "seed": null
                    },
                    "registered_name": null
                  },
                  "depthwise_regularizer": null,
                  "depthwise_constraint": null
                },
                "registered_name": null,
                "build_config": {
                  "input_shape": [
                    null,
                    10,
                    10,
                    384
                  ]
                },
                "name": "block_8_depthwise",
                "inbound_nodes": [
                  [
                    [
                      "block_8_expand_relu",
                      0,
                      0,
                      {}
                    ]
                  ]
                ]
              },
              {
                "module": "keras.layers",
                "class_name": "BatchNormalization",
                "config": {
                  "name": "block_8_depthwise_BN",
                  "trainable": false,
                  "dtype": "float32",
                  "axis": [
                    3
                  ],
                  "momentum": 0.999,
                  "epsilon": 0.001,
                  "center": true,
                  "scale": true,
                  "beta_initializer": {
                    "module": "keras.initializers",
                    "class_name": "Zeros",
                    "config": {},
                    "registered_name": null
                  },
                  "gamma_initializer": {
                    "module": "keras.initializers",
                    "class_name": "Ones",
                    "config": {},
                    "registered_name": null
                  },
                  "moving_mean_initializer": {
                    "module": "keras.initializers",
                    "class_name": "Zeros",
                    "config": {},
                    "registered_name": null
                  },
                  "moving_variance_initializer": {
                    "module": "keras.initializers",
                    "class_name": "Ones",
                    "config": {},
                    "registered_name": null
                  },
                  "beta_regularizer": null,
                  "gamma_regularizer": null,
                  "beta_constraint": null,
                  "gamma_constraint": null
                },
                "registered_name": null,
                "build_config": {
                  "input_shape": [
                    null,
                    10,
                    10,
                    384
                  ]
                },
                "name": "block_8_depthwise_BN",
                "inbound_nodes": [
                  [
                    [
                      "block_8_depthwise",
                      0,
                      0,
                      {}
                    ]
                  ]
                ]
              },
              {
                "module": "keras.layers",
                "class_name": "ReLU",
                "config": {
                  "name": "block_8_depthwise_relu",
                  "trainable": false,
                  "dtype": "float32",
                  "max_value": 6.0,
                  "negative_slope": 0.0,
                  "threshold": 0.0
                },
                "registered_name": null,
                "name": "block_8_depthwise_relu",
                "inbound_nodes": [
                  [
                    [
                      "block_8_depthwise_BN",
                      0,
                      0,
                      {}
                    ]
                  ]
                ]
              },
              {
                "module": "keras.layers",
                "class_name": "Conv2D",
                "config": {
                  "name": "block_8_project",
                  "trainable": false,
                  "dtype": "float32",
                  "filters": 64,
                  "kernel_size": [
                    1,
                    1
                  ],
                  "strides": [
                    1,
                    1
                  ],
                  "padding": "same",
                  "data_format": "channels_last",
                  "dilation_rate": [
                    1,
                    1
                  ],
                  "groups": 1,
                  "activation": "linear",
                  "use_bias": false,
                  "kernel_initializer": {
                    "module": "keras.initializers",
                    "class_name": "GlorotUniform",
                    "config": {
                      "seed": null
                    },
                    "registered_name": null
                  },
                  "bias_initializer": {
                    "module": "keras.initializers",
                    "class_name": "Zeros",
                    "config": {},
                    "registered_name": null
                  },
                  "kernel_regularizer": null,
                  "bias_regularizer": null,
                  "activity_regularizer": null,
                  "kernel_constraint": null,
                  "bias_constraint": null
                },
                "registered_name": null,
                "build_config": {
                  "input_shape": [
                    null,
                    10,
                    10,
                    384
                  ]
                },
                "name": "block_8_project",
                "inbound_nodes": [
                  [
                    [
                      "block_8_depthwise_relu",
                      0,
                      0,
                      {}
                    ]
                  ]
                ]
              },
              {
                "module": "keras.layers",
                "class_name": "BatchNormalization",
                "config": {
                  "name": "block_8_project_BN",
                  "trainable": false,
                  "dtype": "float32",
                  "axis": [
                    3
                  ],
                  "momentum": 0.999,
                  "epsilon": 0.001,
                  "center": true,
                  "scale": true,
                  "beta_initializer": {
                    "module": "keras.initializers",
                    "class_name": "Zeros",
                    "config": {},
                    "registered_name": null
                  },
                  "gamma_initializer": {
                    "module": "keras.initializers",
                    "class_name": "Ones",
                    "config": {},
                    "registered_name": null
                  },
                  "moving_mean_initializer": {
                    "module": "keras.initializers",
                    "class_name": "Zeros",
                    "config": {},
                    "registered_name": null
                  },
                  "moving_variance_initializer": {
                    "module": "keras.initializers",
                    "class_name": "Ones",
                    "config": {},
                    "registered_name": null
                  },
                  "beta_regularizer": null,
                  "gamma_regularizer": null,
                  "beta_constraint": null,
                  "gamma_constraint": null
                },
                "registered_name": null,
                "build_config": {
                  "input_shape": [
                    null,
                    10,
                    10,
                    64
                  ]
                },
                "name": "block_8_project_BN",
                "inbound_nodes": [
                  [
                    [
                      "block_8_project",
                      0,
                      0,
                      {}
                    ]
                  ]
                ]
              },
              {
                "module": "keras.layers",
                "class_name": "Add",
                "config": {
                  "name": "block_8_add",
                  "trainable": false,
                  "dtype": "float32"
                },
                "registered_name": null,
                "build_config": {
                  "input_shape": [
                    [
                      null,
                      10,
                      10,
                      64
                    ],
                    [
                      null,
                      10,
                      10,
                      64
                    ]
                  ]
                },
                "name": "block_8_add",
                "inbound_nodes": [
                  [
                    [
                      "block_7_add",
                      0,
                      0,
                      {}
                    ],
                    [
                      "block_8_project_BN",
                      0,
                      0,
                      {}
                    ]
                  ]
                ]
              },
              {
                "module": "keras.layers",
                "class_name": "Conv2D",
                "config": {
                  "name": "block_9_expand",
                  "trainable": false,
                  "dtype": "float32",
                  "filters": 384,
                  "kernel_size": [
                    1,
                    1
                  ],
                  "strides": [
                    1,
                    1
                  ],
                  "padding": "same",
                  "data_format": "channels_last",
                  "dilation_rate": [
                    1,
                    1
                  ],
                  "groups": 1,
                  "activation": "linear",
                  "use_bias": false,
                  "kernel_initializer": {
                    "module": "keras.initializers",
                    "class_name": "GlorotUniform",
                    "config": {
                      "seed": null
                    },
                    "registered_name": null
                  },
                  "bias_initializer": {
                    "module": "keras.initializers",
                    "class_name": "Zeros",
                    "config": {},
                    "registered_name": null
                  },
                  "kernel_regularizer": null,
                  "bias_regularizer": null,
                  "activity_regularizer": null,
                  "kernel_constraint": null,
                  "bias_constraint": null
                },
                "registered_name": null,
                "build_config": {
                  "input_shape": [
                    null,
                    10,
                    10,
                    64
                  ]
                },
                "name": "block_9_expand",
                "inbound_nodes": [
                  [
                    [
                      "block_8_add",
                      0,
                      0,
                      {}
                    ]
                  ]
                ]
              },
              {
                "module": "keras.layers",
                "class_name": "BatchNormalization",
                "config": {
                  "name": "block_9_expand_BN",
                  "trainable": false,
                  "dtype": "float32",
                  "axis": [
                    3
                  ],
                  "momentum": 0.999,
                  "epsilon": 0.001,
                  "center": true,
                  "scale": true,
                  "beta_initializer": {
                    "module": "keras.initializers",
                    "class_name": "Zeros",
                    "config": {},
                    "registered_name": null
                  },
                  "gamma_initializer": {
                    "module": "keras.initializers",
                    "class_name": "Ones",
                    "config": {},
                    "registered_name": null
                  },
                  "moving_mean_initializer": {
                    "module": "keras.initializers",
                    "class_name": "Zeros",
                    "config": {},
                    "registered_name": null
                  },
                  "moving_variance_initializer": {
                    "module": "keras.initializers",
                    "class_name": "Ones",
                    "config": {},
                    "registered_name": null
                  },
                  "beta_regularizer": null,
                  "gamma_regularizer": null,
                  "beta_constraint": null,
                  "gamma_constraint": null
                },
                "registered_name": null,
                "build_config": {
                  "input_shape": [
                    null,
                    10,
                    10,
                    384
                  ]
                },
                "name": "block_9_expand_BN",
                "inbound_nodes": [
                  [
                    [
                      "block_9_expand",
                      0,
                      0,
                      {}
                    ]
                  ]
                ]
              },
              {
                "module": "keras.layers",
                "class_name": "ReLU",
                "config": {
                  "name": "block_9_expand_relu",
                  "trainable": false,
                  "dtype": "float32",
                  "max_value": 6.0,
                  "negative_slope": 0.0,
                  "threshold": 0.0
                },
                "registered_name": null,
                "name": "block_9_expand_relu",
                "inbound_nodes": [
                  [
                    [
                      "block_9_expand_BN",
                      0,
                      0,
                      {}
                    ]
                  ]
                ]
              },
              {
                "module": "keras.layers",
                "class_name": "DepthwiseConv2D",
                "config": {
                  "name": "block_9_depthwise",
                  "trainable": false,
                  "dtype": "float32",
                  "kernel_size": [
                    3,
                    3
                  ],
                  "strides": [
                    1,
                    1
                  ],
                  "padding": "same",
                  "data_format": "channels_last",
                  "dilation_rate": [
                    1,
                    1
                  ],
                  "groups": 1,
                  "activation": "linear",
                  "use_bias": false,
                  "bias_initializer": {
                    "module": "keras.initializers",
                    "class_name": "Zeros",
                    "config": {},
                    "registered_name": null
                  },
                  "bias_regularizer": null,
                  "activity_regularizer": null,
                  "bias_constraint": null,
                  "depth_multiplier": 1,
                  "depthwise_initializer": {
                    "module": "keras.initializers",
                    "class_name": "GlorotUniform",
                    "config": {
                      "seed": null
                    },
                    "registered_name": null
                  },
                  "depthwise_regularizer": null,
                  "depthwise_constraint": null
                },
                "registered_name": null,
                "build_config": {
                  "input_shape": [
                    null,
                    10,
                    10,
                    384
                  ]
                },
                "name": "block_9_depthwise",
                "inbound_nodes": [
                  [
                    [
                      "block_9_expand_relu",
                      0,
                      0,
                      {}
                    ]
                  ]
                ]
              },
              {
                "module": "keras.layers",
                "class_name": "BatchNormalization",
                "config": {
                  "name": "block_9_depthwise_BN",
                  "trainable": false,
                  "dtype": "float32",
                  "axis": [
                    3
                  ],
                  "momentum": 0.999,
                  "epsilon": 0.001,
                  "center": true,
                  "scale": true,
                  "beta_initializer": {
                    "module": "keras.initializers",
                    "class_name": "Zeros",
                    "config": {},
                    "registered_name": null
                  },
                  "gamma_initializer": {
                    "module": "keras.initializers",
                    "class_name": "Ones",
                    "config": {},
                    "registered_name": null
                  },
                  "moving_mean_initializer": {
                    "module": "keras.initializers",
                    "class_name": "Zeros",
                    "config": {},
                    "registered_name": null
                  },
                  "moving_variance_initializer": {
                    "module": "keras.initializers",
                    "class_name": "Ones",
                    "config": {},
                    "registered_name": null
                  },
                  "beta_regularizer": null,
                  "gamma_regularizer": null,
                  "beta_constraint": null,
                  "gamma_constraint": null
                },
                "registered_name": null,
                "build_config": {
                  "input_shape": [
                    null,
                    10,
                    10,
                    384
                  ]
                },
                "name": "block_9_depthwise_BN",
                "inbound_nodes": [
                  [
                    [
                      "block_9_depthwise",
                      0,
                      0,
                      {}
                    ]
                  ]
                ]
              },
              {
                "module": "keras.layers",
                "class_name": "ReLU",
                "config": {
                  "name": "block_9_depthwise_relu",
                  "trainable": false,
                  "dtype": "float32",
                  "max_value": 6.0,
                  "negative_slope": 0.0,
                  "threshold": 0.0
                },
                "registered_name": null,
                "name": "block_9_depthwise_relu",
                "inbound_nodes": [
                  [
                    [
                      "block_9_depthwise_BN",
                      0,
                      0,
                      {}
                    ]
                  ]
                ]
…
            "moving_variance_initializer": {
              "module": "keras.initializers",
              "class_name": "Ones",
              "config": {},
              "registered_name": null
            },
            "beta_regularizer": null,
            "gamma_regularizer": null,
            "beta_constraint": null,
            "gamma_constraint": null
          },
          "registered_name": null,
          "build_config": {
            "input_shape": [
              null,
              64
            ]
          }
        },
        {
          "module": "keras.layers",
          "class_name": "Dense",
          "config": {
            "name": "dense",
            "trainable": true,
            "dtype": "float32",
            "units": 256,
            "activation": "relu",
            "use_bias": true,
            "kernel_initializer": {
              "module": "keras.initializers",
              "class_name": "GlorotUniform",
              "config": {
                "seed": null
              },
              "registered_name": null
            },
            "bias_initializer": {
              "module": "keras.initializers",
              "class_name": "Zeros",
              "config": {},
              "registered_name": null
            },
            "kernel_regularizer": null,
            "bias_regularizer": null,
            "activity_regularizer": null,
            "kernel_constraint": null,
            "bias_constraint": null
          },
          "registered_name": null,
          "build_config": {
            "input_shape": [
              null,
              64
            ]
          }
        },
        {
          "module": "keras.layers",
          "class_name": "BatchNormalization",
          "config": {
            "name": "batch_normalization_3",
            "trainable": true,
            "dtype": "float32",
            "axis": [
              1
            ],
            "momentum": 0.99,
            "epsilon": 0.001,
            "center": true,
            "scale": true,
            "beta_initializer": {
              "module": "keras.initializers",
              "class_name": "Zeros",
              "config": {},
              "registered_name": null
            },
            "gamma_initializer": {
              "module": "keras.initializers",
              "class_name": "Ones",
              "config": {},
              "registered_name": null
            },
            "moving_mean_initializer": {
              "module": "keras.initializers",
              "class_name": "Zeros",
              "config": {},
              "registered_name": null
            },
            "moving_variance_initializer": {
              "module": "keras.initializers",
              "class_name": "Ones",
              "config": {},
              "registered_name": null
            },
            "beta_regularizer": null,
            "gamma_regularizer": null,
            "beta_constraint": null,
            "gamma_constraint": null
          },
          "registered_name": null,
          "build_config": {
            "input_shape": [
              null,
              256
            ]
          }
        },
        {
          "module": "keras.layers",
          "class_name": "Dropout",
          "config": {
            "name": "dropout",
            "trainable": true,
            "dtype": "float32",
            "rate": 0.5,
            "noise_shape": null,
            "seed": null
          },
          "registered_name": null,
          "build_config": {
            "input_shape": [
              null,
              256
            ]
          }
        },
        {
          "module": "keras.layers",
          "class_name": "Dense",
          "config": {
            "name": "dense_1",
            "trainable": true,
            "dtype": "float32",
            "units": 128,
            "activation": "relu",
            "use_bias": true,
            "kernel_initializer": {
              "module": "keras.initializers",
              "class_name": "GlorotUniform",
              "config": {
                "seed": null
              },
              "registered_name": null
            },
            "bias_initializer": {
              "module": "keras.initializers",
              "class_name": "Zeros",
              "config": {},
              "registered_name": null
            },
            "kernel_regularizer": null,
            "bias_regularizer": null,
            "activity_regularizer": null,
            "kernel_constraint": null,
            "bias_constraint": null
          },
          "registered_name": null,
          "build_config": {
            "input_shape": [
              null,
              256
            ]
          }
        },
        {
          "module": "keras.layers",
          "class_name": "BatchNormalization",
          "config": {
            "name": "batch_normalization_4",
            "trainable": true,
            "dtype": "float32",
            "axis": [
              1
            ],
            "momentum": 0.99,
            "epsilon": 0.001,
            "center": true,
            "scale": true,
            "beta_initializer": {
              "module": "keras.initializers",
              "class_name": "Zeros",
              "config": {},
              "registered_name": null
            },
            "gamma_initializer": {
              "module": "keras.initializers",
              "class_name": "Ones",
              "config": {},
              "registered_name": null
            },
            "moving_mean_initializer": {
              "module": "keras.initializers",
              "class_name": "Zeros",
              "config": {},
              "registered_name": null
            },
            "moving_variance_initializer": {
              "module": "keras.initializers",
              "class_name": "Ones",
              "config": {},
              "registered_name": null
            },
            "beta_regularizer": null,
            "gamma_regularizer": null,
            "beta_constraint": null,
            "gamma_constraint": null
          },
          "registered_name": null,
          "build_config": {
            "input_shape": [
              null,
              128
            ]
          }
        },
        {
          "module": "keras.layers",
          "class_name": "Dropout",
          "config": {
            "name": "dropout_1",
            "trainable": true,
            "dtype": "float32",
            "rate": 0.3,
            "noise_shape": null,
            "seed": null
          },
          "registered_name": null,
          "build_config": {
            "input_shape": [
              null,
              128
            ]
          }
        },
        {
          "module": "keras.layers",
          "class_name": "Dense",
          "config": {
            "name": "dense_2",
            "trainable": true,
            "dtype": "float32",
            "units": 6,
            "activation": "softmax",
            "use_bias": true,
            "kernel_initializer": {
              "module": "keras.initializers",
              "class_name": "GlorotUniform",
              "config": {
                "seed": null
              },
              "registered_name": null
            },
            "bias_initializer": {
              "module": "keras.initializers",
              "class_name": "Zeros",
              "config": {},
              "registered_name": null
            },
            "kernel_regularizer": null,
            "bias_regularizer": null,
            "activity_regularizer": null,
            "kernel_constraint": null,
            "bias_constraint": null
          },
          "registered_name": null,
          "build_config": {
            "input_shape": [
              null,
              128
            ]
          }
        }
      ]
    },
    "keras_version": "2.15.0",
    "backend": "tensorflow"
  },
  "weightsManifest": [
    {
      "paths": [
        "group1-shard1of1.bin"
      ],
      "weights": [
        {
          "name": "dense_0/kernel",
          "shape": [
            3,
            3,
            3,
            32
          ],
          "dtype": "float32"
        },
        {
          "name": "dense_0/bias",
          "shape": [
            32
          ],
          "dtype": "float32"
        },
        {
          "name": "dense_1/kernel",
          "shape": [
            32
          ],
          "dtype": "float32"
        },
        {
          "name": "dense_1/bias",
          "shape": [
            32
          ],
          "dtype": "float32"
        },
        {
          "name": "dense_2/kernel",
          "shape": [
            32
          ],
          "dtype": "float32"
        },
        {
          "name": "dense_2/bias",
          "shape": [
            3,
            3,
            32,
            1
          ],
          "dtype": "float32"
        },
        {
          "name": "dense_3/kernel",
          "shape": [
            32
          ],
          "dtype": "float32"
        },
        {
          "name": "dense_3/bias",
          "shape": [
            32
          ],
          "dtype": "float32"
        },
        {
          "name": "dense_4/kernel",
          "shape": [
            32
          ],
          "dtype": "float32"
        },
        {
          "name": "dense_4/bias",
          "shape": [
            32
          ],
          "dtype": "float32"
        },
        {
          "name": "dense_5/kernel",
          "shape": [
            1,
            1,
            32,
            16
          ],
          "dtype": "float32"
        },
        {
          "name": "dense_5/bias",
          "shape": [
            16
          ],
          "dtype": "float32"
        },
        {
          "name": "dense_6/kernel",
          "shape": [
            16
          ],
          "dtype": "float32"
        },
        {
          "name": "dense_6/bias",
          "shape": [
            16
          ],
          "dtype": "float32"
        },
        {
          "name": "dense_7/kernel",
          "shape": [
            16
          ],
          "dtype": "float32"
        },
        {
          "name": "dense_7/bias",
          "shape": [
            1,
            1,
            16,
            96
          ],
          "dtype": "float32"
        },
        {
          "name": "dense_8/kernel",
          "shape": [
            96
          ],
          "dtype": "float32"
        },
        {
          "name": "dense_8/bias",
          "shape": [
            96
          ],
          "dtype": "float32"
        },
        {
          "name": "dense_9/kernel",
          "shape": [
            96
          ],
          "dtype": "float32"
        },
        {
          "name": "dense_9/bias",
          "shape": [
            96
          ],
          "dtype": "float32"
        },
        {
          "name": "dense_10/kernel",
          "shape": [
            3,
            3,
            96,
            1
          ],
          "dtype": "float32"
        },
        {
          "name": "dense_10/bias",
          "shape": [
            96
          ],
          "dtype": "float32"
        },
        {
          "name": "dense_11/kernel",
          "shape": [
            96
          ],
          "dtype": "float32"
        },
        {
          "name": "dense_11/bias",
          "shape": [
            96
          ],
          "dtype": "float32"
        },
        {
          "name": "dense_12/kernel",
          "shape": [
            96
          ],
          "dtype": "float32"
        },
        {
          "name": "dense_12/bias",
          "shape": [
            1,
            1,
            96,
            24
          ],
          "dtype": "float32"
        },
        {
          "name": "dense_13/kernel",
          "shape": [
            24
          ],
          "dtype": "float32"
        },
        {
          "name": "dense_13/bias",
          "shape": [
            24
          ],
          "dtype": "float32"
        },
        {
          "name": "dense_14/kernel",
          "shape": [
            24
          ],
          "dtype": "float32"
        },
        {
          "name": "dense_14/bias",
          "shape": [
            24
          ],
          "dtype": "float32"
        },
        {
          "name": "dense_15/kernel",
          "shape": [
            1,
            1,
            24,
            144
          ],
          "dtype": "float32"
        },
        {
          "name": "dense_15/bias",
          "shape": [
            144
          ],
          "dtype": "float32"
        },
        {
          "name": "dense_16/kernel",
          "shape": [
            144
          ],
          "dtype": "float32"
        },
        {
          "name": "dense_16/bias",
          "shape": [
            144
          ],
          "dtype": "float32"
        },
        {
          "name": "dense_17/kernel",
          "shape": [
            144
          ],
          "dtype": "float32"
        },
        {
          "name": "dense_17/bias",
          "shape": [
            3,
            3,
            144,
            1
          ],
          "dtype": "float32"
        },
        {
          "name": "dense_18/kernel",
          "shape": [
            144
          ],
          "dtype": "float32"
        },
        {
          "name": "dense_18/bias",
          "shape": [
            144
          ],
          "dtype": "float32"
        },
        {
          "name": "dense_19/kernel",
          "shape": [
            144
          ],
          "dtype": "float32"
        },
        {
          "name": "dense_19/bias",
          "shape": [
            144
          ],
          "dtype": "float32"
        },
        {
          "name": "dense_20/kernel",
          "shape": [
            1,
            1,
            144,
            24
          ],
          "dtype": "float32"
        },
        {
          "name": "dense_20/bias",
          "shape": [
            24
          ],
          "dtype": "float32"
        },
        {
          "name": "dense_21/kernel",
          "shape": [
            24
          ],
          "dtype": "float32"
        },
        {
          "name": "dense_21/bias",
          "shape": [
            24
          ],
          "dtype": "float32"
        },
        {
          "name": "dense_22/kernel",
          "shape": [
            24
          ],
          "dtype": "float32"
        },
        {
          "name": "dense_22/bias",
          "shape": [
            1,
            1,
            24,
            144
          ],
          "dtype": "float32"
        },
        {
          "name": "dense_23/kernel",
          "shape": [
            144
          ],
          "dtype": "float32"
        },
        {
          "name": "dense_23/bias",
          "shape": [
            144
          ],
          "dtype": "float32"
        },
        {
          "name": "dense_24/kernel",
          "shape": [
            144
          ],
          "dtype": "float32"
        },
        {
          "name": "dense_24/bias",
          "shape": [
            144
          ],
          "dtype": "float32"
        },
        {
          "name": "dense_25/kernel",
          "shape": [
            3,
            3,
            144,
            1
          ],
          "dtype": "float32"
        },
        {
          "name": "dense_25/bias",
          "shape": [
            144
          ],
          "dtype": "float32"
        },
        {
          "name": "dense_26/kernel",
          "shape": [
            144
          ],
          "dtype": "float32"
        },
        {
          "name": "dense_26/bias",
          "shape": [
            144
          ],
          "dtype": "float32"
        },
        {
          "name": "dense_27/kernel",
          "shape": [
            144
          ],
          "dtype": "float32"
        },
        {
          "name": "dense_27/bias",
          "shape": [
            1,
            1,
            144,
            32
          ],
          "dtype": "float32"
        },
        {
          "name": "dense_28/kernel",
          "shape": [
            32
          ],
          "dtype": "float32"
        },
        {
          "name": "dense_28/bias",
          "shape": [
            32
          ],
          "dtype": "float32"
        },
        {
          "name": "dense_29/kernel",
          "shape": [
            32
          ],
          "dtype": "float32"
        },
        {
          "name": "dense_29/bias",
          "shape": [
            32
          ],
          "dtype": "float32"
        },
        {
          "name": "dense_30/kernel",
          "shape": [
            1,
            1,
            32,
            192
          ],
          "dtype": "float32"
        },
        {
          "name": "dense_30/bias",
          "shape": [
            192
          ],
          "dtype": "float32"
        },
        {
          "name": "dense_31/kernel",
          "shape": [
            192
          ],
          "dtype": "float32"
        },
        {
          "name": "dense_31/bias",
          "shape": [
            192
          ],
          "dtype": "float32"
        },
        {
          "name": "dense_32/kernel",
          "shape": [
            192
          ],
          "dtype": "float32"
        },
        {
          "name": "dense_32/bias",
          "shape": [
            3,
            3,
            192,
            1
          ],
          "dtype": "float32"
        },
        {
          "name": "dense_33/kernel",
          "shape": [
            192
          ],
          "dtype": "float32"
        },
        {
          "name": "dense_33/bias",
          "shape": [
            192
          ],
          "dtype": "float32"
        },
        {
          "name": "dense_34/kernel",
          "shape": [
            192
          ],
          "dtype": "float32"
        },
        {
          "name": "dense_34/bias",
          "shape": [
            192
          ],
          "dtype": "float32"
        },
        {
          "name": "dense_35/kernel",
          "shape": [
            1,
            1,
            192,
            32
          ],
          "dtype": "float32"
        },
        {
          "name": "dense_35/bias",
          "shape": [
            32
          ],
          "dtype": "float32"
        },
        {
          "name": "dense_36/kernel",
          "shape": [
            32
          ],
          "dtype": "float32"
        },
        {
          "name": "dense_36/bias",
          "shape": [
            32
          ],
          "dtype": "float32"
        },
        {
          "name": "dense_37/kernel",
          "shape": [
            32
          ],
          "dtype": "float32"
        },
        {
          "name": "dense_37/bias",
          "shape": [
            1,
            1,
            32,
            192
          ],
          "dtype": "float32"
        },
        {
          "name": "dense_38/kernel",
          "shape": [
            192
          ],
          "dtype": "float32"
        },
        {
          "name": "dense_38/bias",
          "shape": [
            192
          ],
          "dtype": "float32"
        },
        {
          "name": "dense_39/kernel",
          "shape": [
            192
          ],
          "dtype": "float32"
        },
        {
          "name": "dense_39/bias",
          "shape": [
            192
          ],
          "dtype": "float32"
        },
        {
          "name": "dense_40/kernel",
          "shape": [
            3,
            3,
            192,
            1
          ],
          "dtype": "float32"
        },
        {
          "name": "dense_40/bias",
          "shape": [
            192
          ],
          "dtype": "float32"
        },
        {
          "name": "dense_41/kernel",
          "shape": [
            192
          ],
          "dtype": "float32"
        },
        {
          "name": "dense_41/bias",
          "shape": [
            192
          ],
          "dtype": "float32"
        },
        {
          "name": "dense_42/kernel",
          "shape": [
            192
          ],
          "dtype": "float32"
        },
        {
          "name": "dense_42/bias",
          "shape": [
            1,
            1,
            192,
            32
          ],
          "dtype": "float32"
        },
        {
          "name": "dense_43/kernel",
          "shape": [
            32
          ],
          "dtype": "float32"
        },
        {
          "name": "dense_43/bias",
          "shape": [
            32
          ],
          "dtype": "float32"
        },
        {
          "name": "dense_44/kernel",
          "shape": [
            32
          ],
          "dtype": "float32"
        },
        {
          "name": "dense_44/bias",
          "shape": [
            32
          ],
          "dtype": "float32"
        },
        {
          "name": "dense_45/kernel",
          "shape": [
            1,
            1,
            32,
            192
          ],
          "dtype": "float32"
        },
        {
          "name": "dense_45/bias",
          "shape": [
            192
          ],
          "dtype": "float32"
        },
        {
          "name": "dense_46/kernel",
          "shape": [
            192
          ],
          "dtype": "float32"
        },
        {
          "name": "dense_46/bias",
          "shape": [
            192
          ],
          "dtype": "float32"
        },
        {
          "name": "dense_47/kernel",
          "shape": [
            192
          ],
          "dtype": "float32"
        },
        {
          "name": "dense_47/bias",
          "shape": [
            3,
            3,
            192,
            1
          ],
          "dtype": "float32"
        },
        {
          "name": "dense_48/kernel",
          "shape": [
            192
          ],
          "dtype": "float32"
        },
        {
          "name": "dense_48/bias",
          "shape": [
            192
          ],
          "dtype": "float32"
        },
        {
          "name": "dense_49/kernel",
          "shape": [
            192
          ],
          "dtype": "float32"
        },
        {
          "name": "dense_49/bias",
          "shape": [
            192
          ],
          "dtype": "float32"
        },
        {
          "name": "dense_50/kernel",
          "shape": [
            1,
            1,
            192,
            64
          ],
          "dtype": "float32"
        },
        {
          "name": "dense_50/bias",
          "shape": [
            64
          ],
          "dtype": "float32"
        },
        {
          "name": "dense_51/kernel",
          "shape": [
            64
          ],
          "dtype": "float32"
        },
        {
          "name": "dense_51/bias",
          "shape": [
            64
          ],
          "dtype": "float32"
        },
        {
          "name": "dense_52/kernel",
          "shape": [
            64
          ],
          "dtype": "float32"
        },
        {
          "name": "dense_52/bias",
          "shape": [
            1,
            1,
            64,
            384
          ],
          "dtype": "float32"
        },
        {
          "name": "dense_53/kernel",
          "shape": [
            384
          ],
          "dtype": "float32"
        },
        {
          "name": "dense_53/bias",
          "shape": [
            384
          ],
          "dtype": "float32"
        },
        {
          "name": "dense_54/kernel",
          "shape": [
            384
          ],
          "dtype": "float32"
        },
        {
          "name": "dense_54/bias",
          "shape": [
            384
          ],
          "dtype": "float32"
        },
        {
          "name": "dense_55/kernel",
          "shape": [
            3,
            3,
            384,
            1
          ],
          "dtype": "float32"
        },
        {
          "name": "dense_55/bias",
          "shape": [
            384
          ],
          "dtype": "float32"
        },
        {
          "name": "dense_56/kernel",
          "shape": [
            384
          ],
          "dtype": "float32"
        },
        {
          "name": "dense_56/bias",
          "shape": [
            384
          ],
          "dtype": "float32"
        },
        {
          "name": "dense_57/kernel",
          "shape": [
            384
          ],
          "dtype": "float32"
        },
        {
          "name": "dense_57/bias",
          "shape": [
            1,
            1,
            384,
            64
          ],
          "dtype": "float32"
        },
        {
          "name": "dense_58/kernel",
          "shape": [
            64
          ],
          "dtype": "float32"
        },
        {
          "name": "dense_58/bias",
          "shape": [
            64
          ],
          "dtype": "float32"
        },
        {
          "name": "dense_59/kernel",
          "shape": [
            64
          ],
          "dtype": "float32"
        },
        {
          "name": "dense_59/bias",
          "shape": [
            64
          ],
          "dtype": "float32"
        },
        {
          "name": "dense_60/kernel",
          "shape": [
            1,
            1,
            64,
            384
          ],
          "dtype": "float32"
        },
        {
          "name": "dense_60/bias",
          "shape": [
            384
          ],
          "dtype": "float32"
        },
        {
          "name": "dense_61/kernel",
          "shape": [
            384
          ],
          "dtype": "float32"
        },
        {
          "name": "dense_61/bias",
          "shape": [
            384
          ],
          "dtype": "float32"
        },
        {
          "name": "dense_62/kernel",
          "shape": [
            384
          ],
          "dtype": "float32"
        },
        {
          "name": "dense_62/bias",
          "shape": [
            3,
            3,
            384,
            1
          ],
          "dtype": "float32"
        },
        {
          "name": "dense_63/kernel",
          "shape": [
            384
          ],
          "dtype": "float32"
        },
        {
          "name": "dense_63/bias",
          "shape": [
            384
          ],
          "dtype": "float32"
        },
        {
          "name": "dense_64/kernel",
          "shape": [
            384
          ],
          "dtype": "float32"
        },
        {
          "name": "dense_64/bias",
          "shape": [
            384
          ],
          "dtype": "float32"
        },
        {
          "name": "dense_65/kernel",
          "shape": [
            1,
            1,
            384,
            64
          ],
          "dtype": "float32"
        },
        {
          "name": "dense_65/bias",
          "shape": [
            64
          ],
          "dtype": "float32"
        },
        {
          "name": "dense_66/kernel",
          "shape": [
            64
          ],
          "dtype": "float32"
        },
        {
          "name": "dense_66/bias",
          "shape": [
            64
          ],
          "dtype": "float32"
        },
        {
          "name": "dense_67/kernel",
          "shape": [
            64
          ],
          "dtype": "float32"
        },
        {
          "name": "dense_67/bias",
          "shape": [
            1,
            1,
            64,
            384
          ],
          "dtype": "float32"
        },
        {
          "name": "dense_68/kernel",
          "shape": [
            384
          ],
          "dtype": "float32"
        },
        {
          "name": "dense_68/bias",
          "shape": [
            384
          ],
          "dtype": "float32"
        },
        {
          "name": "dense_69/kernel",
          "shape": [
            384
          ],
          "dtype": "float32"
        },
        {
          "name": "dense_69/bias",
          "shape": [
            384
          ],
          "dtype": "float32"
        },
        {
          "name": "dense_70/kernel",
          "shape": [
            3,
            3,
            384,
            1
          ],
          "dtype": "float32"
        },
        {
          "name": "dense_70/bias",
          "shape": [
            384
          ],
          "dtype": "float32"
        },
        {
          "name": "dense_71/kernel",
          "shape": [
            384
          ],
          "dtype": "float32"
        },
        {
          "name": "dense_71/bias",
          "shape": [
            384
          ],
          "dtype": "float32"
        },
        {
          "name": "dense_72/kernel",
          "shape": [
            384
          ],
          "dtype": "float32"
        },
        {
          "name": "dense_72/bias",
          "shape": [
            1,
            1,
            384,
            64
          ],
          "dtype": "float32"
        },
        {
          "name": "dense_73/kernel",
          "shape": [
            64
          ],
          "dtype": "float32"
        },
        {
          "name": "dense_73/bias",
          "shape": [
            64
          ],
          "dtype": "float32"
        },
        {
          "name": "dense_74/kernel",
          "shape": [
            64
          ],
          "dtype": "float32"
        },
        {
          "name": "dense_74/bias",
          "shape": [
            64
          ],
          "dtype": "float32"
        },
        {
          "name": "dense_75/kernel",
          "shape": [
            1,
            1,
            64,
            384
          ],
          "dtype": "float32"
        },
        {
          "name": "dense_75/bias",
          "shape": [
            384
          ],
          "dtype": "float32"
        },
        {
          "name": "dense_76/kernel",
          "shape": [
            384
          ],
          "dtype": "float32"
        },
        {
          "name": "dense_76/bias",
          "shape": [
            384
          ],
          "dtype": "float32"
        },
        {
          "name": "dense_77/kernel",
          "shape": [
            384
          ],
          "dtype": "float32"
        },
        {
          "name": "dense_77/bias",
          "shape": [
            3,
            3,
            384,
            1
          ],
          "dtype": "float32"
        },
        {
          "name": "dense_78/kernel",
          "shape": [
            384
          ],
          "dtype": "float32"
        },
        {
          "name": "dense_78/bias",
          "shape": [
            384
          ],
          "dtype": "float32"
        },
        {
          "name": "dense_79/kernel",
          "shape": [
            384
          ],
          "dtype": "float32"
        },
        {
          "name": "dense_79/bias",
          "shape": [
            384
          ],
          "dtype": "float32"
        },
        {
          "name": "dense_80/kernel",
          "shape": [
            1,
            1,
            384,
            96
          ],
          "dtype": "float32"
        },
        {
          "name": "dense_80/bias",
          "shape": [
            96
          ],
          "dtype": "float32"
        },
        {
          "name": "dense_81/kernel",
          "shape": [
            96
          ],
          "dtype": "float32"
        },
        {
          "name": "dense_81/bias",
          "shape": [
            96
          ],
          "dtype": "float32"
        },
        {
          "name": "dense_82/kernel",
          "shape": [
            96
          ],
          "dtype": "float32"
        },
        {
          "name": "dense_82/bias",
          "shape": [
            1,
            1,
            96,
            576
          ],
          "dtype": "float32"
        },
        {
          "name": "dense_83/kernel",
          "shape": [
            576
          ],
          "dtype": "float32"
        },
        {
          "name": "dense_83/bias",
          "shape": [
            576
          ],
          "dtype": "float32"
        },
        {
          "name": "dense_84/kernel",
          "shape": [
            576
          ],
          "dtype": "float32"
        },
        {
          "name": "dense_84/bias",
          "shape": [
            576
          ],
          "dtype": "float32"
        },
        {
          "name": "dense_85/kernel",
          "shape": [
            3,
            3,
            576,
            1
          ],
          "dtype": "float32"
        },
        {
          "name": "dense_85/bias",
          "shape": [
            576
          ],
          "dtype": "float32"
        },
        {
          "name": "dense_86/kernel",
          "shape": [
            576
          ],
          "dtype": "float32"
        },
        {
          "name": "dense_86/bias",
          "shape": [
            576
          ],
          "dtype": "float32"
        },
        {
          "name": "dense_87/kernel",
          "shape": [
            576
          ],
          "dtype": "float32"
        },
        {
          "name": "dense_87/bias",
          "shape": [
            1,
            1,
            576,
            96
          ],
          "dtype": "float32"
        },
        {
          "name": "dense_88/kernel",
          "shape": [
            96
          ],
          "dtype": "float32"
        },
        {
          "name": "dense_88/bias",
          "shape": [
            96
          ],
          "dtype": "float32"
        },
        {
          "name": "dense_89/kernel",
          "shape": [
            96
          ],
          "dtype": "float32"
        },
        {
          "name": "dense_89/bias",
          "shape": [
            96
          ],
          "dtype": "float32"
        },
        {
          "name": "dense_90/kernel",
          "shape": [
            1,
            1,
            96,
            576
          ],
          "dtype": "float32"
        },
        {
          "name": "dense_90/bias",
          "shape": [
            576
          ],
          "dtype": "float32"
        },
        {
          "name": "dense_91/kernel",
          "shape": [
            576
          ],
          "dtype": "float32"
        },
        {
          "name": "dense_91/bias",
          "shape": [
            576
          ],
          "dtype": "float32"
        },
        {
          "name": "dense_92/kernel",
          "shape": [
            576
          ],
          "dtype": "float32"
        },
        {
          "name": "dense_92/bias",
          "shape": [
            3,
            3,
            576,
            1
          ],
          "dtype": "float32"
        },
        {
          "name": "dense_93/kernel",
          "shape": [
            576
          ],
          "dtype": "float32"
        },
        {
          "name": "dense_93/bias",
          "shape": [
            576
          ],
          "dtype": "float32"
        },
        {
          "name": "dense_94/kernel",
          "shape": [
            576
          ],
          "dtype": "float32"
        },
        {
          "name": "dense_94/bias",
          "shape": [
            576
          ],
          "dtype": "float32"
        },
        {
          "name": "dense_95/kernel",
          "shape": [
            1,
            1,
            576,
            96
          ],
          "dtype": "float32"
        },
        {
          "name": "dense_95/bias",
          "shape": [
            96
          ],
          "dtype": "float32"
        },
        {
          "name": "dense_96/kernel",
          "shape": [
            96
          ],
          "dtype": "float32"
        },
        {
          "name": "dense_96/bias",
          "shape": [
            96
          ],
          "dtype": "float32"
        },
        {
          "name": "dense_97/kernel",
          "shape": [
            96
          ],
          "dtype": "float32"
        },
        {
          "name": "dense_97/bias",
          "shape": [
            1,
            1,
            96,
            576
          ],
          "dtype": "float32"
        },
        {
          "name": "dense_98/kernel",
          "shape": [
            576
          ],
          "dtype": "float32"
        },
        {
          "name": "dense_98/bias",
          "shape": [
            576
          ],
          "dtype": "float32"
        },
        {
          "name": "dense_99/kernel",
          "shape": [
            576
          ],
          "dtype": "float32"
        },
        {
          "name": "dense_99/bias",
          "shape": [
            576
          ],
          "dtype": "float32"
        },
        {
          "name": "dense_100/kernel",
          "shape": [
            3,
            3,
            576,
            1
          ],
          "dtype": "float32"
        },
        {
          "name": "dense_100/bias",
          "shape": [
            576
          ],
          "dtype": "float32"
        },
        {
          "name": "dense_101/kernel",
          "shape": [
            576
          ],
          "dtype": "float32"
        },
        {
          "name": "dense_101/bias",
          "shape": [
            576
          ],
          "dtype": "float32"
        },
        {
          "name": "dense_102/kernel",
          "shape": [
            576
          ],
          "dtype": "float32"
        },
        {
          "name": "dense_102/bias",
          "shape": [
            1,
            1,
            576,
            160
          ],
          "dtype": "float32"
        },
        {
          "name": "dense_103/kernel",
          "shape": [
            160
          ],
          "dtype": "float32"
        },
        {
          "name": "dense_103/bias",
          "shape": [
            160
          ],
          "dtype": "float32"
        },
        {
          "name": "dense_104/kernel",
          "shape": [
            160
          ],
          "dtype": "float32"
        },
        {
          "name": "dense_104/bias",
          "shape": [
            160
          ],
          "dtype": "float32"
        },
        {
          "name": "dense_105/kernel",
          "shape": [
            1,
            1,
            160,
            960
          ],
          "dtype": "float32"
        },
        {
          "name": "dense_105/bias",
          "shape": [
            960
          ],
          "dtype": "float32"
        },
        {
          "name": "dense_106/kernel",
          "shape": [
            960
          ],
          "dtype": "float32"
        },
        {
          "name": "dense_106/bias",
          "shape": [
            960
          ],
          "dtype": "float32"
        },
        {
          "name": "dense_107/kernel",
          "shape": [
            960
          ],
          "dtype": "float32"
        },
        {
          "name": "dense_107/bias",
          "shape": [
            3,
            3,
            960,
            1
          ],
          "dtype": "float32"
        },
        {
          "name": "dense_108/kernel",
          "shape": [
            960
          ],
          "dtype": "float32"
        },
        {
          "name": "dense_108/bias",
          "shape": [
            960
          ],
          "dtype": "float32"
        },
        {
          "name": "dense_109/kernel",
          "shape": [
            960
          ],
          "dtype": "float32"
        },
        {
          "name": "dense_109/bias",
          "shape": [
            960
          ],
          "dtype": "float32"
        },
        {
          "name": "dense_110/kernel",
          "shape": [
            1,
            1,
            960,
            160
          ],
          "dtype": "float32"
        },
        {
          "name": "dense_110/bias",
          "shape": [
            160
          ],
          "dtype": "float32"
        },
        {
          "name": "dense_111/kernel",
          "shape": [
            160
          ],
          "dtype": "float32"
        },
        {
          "name": "dense_111/bias",
          "shape": [
            160
          ],
          "dtype": "float32"
        },
        {
          "name": "dense_112/kernel",
          "shape": [
            160
          ],
          "dtype": "float32"
        },
        {
          "name": "dense_112/bias",
          "shape": [
            1,
            1,
            160,
            960
          ],
          "dtype": "float32"
        },
        {
          "name": "dense_113/kernel",
          "shape": [
            960
          ],
          "dtype": "float32"
        },
        {
          "name": "dense_113/bias",
          "shape": [
            960
          ],
          "dtype": "float32"
        },
        {
          "name": "dense_114/kernel",
          "shape": [
            960
          ],
          "dtype": "float32"
        },
        {
          "name": "dense_114/bias",
          "shape": [
            960
          ],
          "dtype": "float32"
        },
        {
          "name": "dense_115/kernel",
          "shape": [
            3,
            3,
            960,
            1
          ],
          "dtype": "float32"
        },
        {
          "name": "dense_115/bias",
          "shape": [
            960
          ],
          "dtype": "float32"
        },
        {
          "name": "dense_116/kernel",
          "shape": [
            960
          ],
          "dtype": "float32"
        },
        {
          "name": "dense_116/bias",
          "shape": [
            960
          ],
          "dtype": "float32"
        },
        {
          "name": "dense_117/kernel",
          "shape": [
            960
          ],
          "dtype": "float32"
        },
        {
          "name": "dense_117/bias",
          "shape": [
            1,
            1,
            960,
            160
          ],
          "dtype": "float32"
        },
        {
          "name": "dense_118/kernel",
          "shape": [
            160
          ],
          "dtype": "float32"
        },
        {
          "name": "dense_118/bias",
          "shape": [
            160
          ],
          "dtype": "float32"
        },
        {
          "name": "dense_119/kernel",
          "shape": [
            160
          ],
          "dtype": "float32"
        },
        {
          "name": "dense_119/bias",
          "shape": [
            160
          ],
          "dtype": "float32"
        },
        {
          "name": "dense_120/kernel",
          "shape": [
            1,
            1,
            160,
            960
          ],
          "dtype": "float32"
        },
        {
          "name": "dense_120/bias",
          "shape": [
            960
          ],
          "dtype": "float32"
        },
        {
          "name": "dense_121/kernel",
          "shape": [
            960
          ],
          "dtype": "float32"
        },
        {
          "name": "dense_121/bias",
          "shape": [
            960
          ],
          "dtype": "float32"
        },
        {
          "name": "dense_122/kernel",
          "shape": [
            960
          ],
          "dtype": "float32"
        },
        {
          "name": "dense_122/bias",
          "shape": [
            3,
            3,
            960,
            1
          ],
          "dtype": "float32"
        },
        {
          "name": "dense_123/kernel",
          "shape": [
            960
          ],
          "dtype": "float32"
        },
        {
          "name": "dense_123/bias",
          "shape": [
            960
          ],
          "dtype": "float32"
        },
        {
          "name": "dense_124/kernel",
          "shape": [
            960
          ],
          "dtype": "float32"
        },
        {
          "name": "dense_124/bias",
          "shape": [
            960
          ],
          "dtype": "float32"
        },
        {
          "name": "dense_125/kernel",
          "shape": [
            1,
            1,
            960,
            320
          ],
          "dtype": "float32"
        },
        {
          "name": "dense_125/bias",
          "shape": [
            320
          ],
          "dtype": "float32"
        },
        {
          "name": "dense_126/kernel",
          "shape": [
            320
          ],
          "dtype": "float32"
        },
        {
          "name": "dense_126/bias",
          "shape": [
            320
          ],
          "dtype": "float32"
        },
        {
          "name": "dense_127/kernel",
          "shape": [
            320
          ],
          "dtype": "float32"
        },
        {
          "name": "dense_127/bias",
          "shape": [
            1,
            1,
            320,
            1280
          ],
          "dtype": "float32"
        },
        {
          "name": "dense_128/kernel",
          "shape": [
            1280
          ],
          "dtype": "float32"
        },
        {
          "name": "dense_128/bias",
          "shape": [
            1280
          ],
          "dtype": "float32"
        },
        {
          "name": "dense_129/kernel",
          "shape": [
            1280
          ],
          "dtype": "float32"
        },
        {
          "name": "dense_129/bias",
          "shape": [
            1280
          ],
          "dtype": "float32"
        },
        {
          "name": "dense_130/kernel",
          "shape": [
            3,
            3,
            1280,
            128
          ],
          "dtype": "float32"
        },
        {
          "name": "dense_130/bias",
          "shape": [
            128
          ],
          "dtype": "float32"
        },
        {
          "name": "dense_131/kernel",
          "shape": [
            128
          ],
          "dtype": "float32"
        },
        {
          "name": "dense_131/bias",
          "shape": [
            128
          ],
          "dtype": "float32"
        },
        {
          "name": "dense_132/kernel",
          "shape": [
            128
          ],
          "dtype": "float32"
        },
        {
          "name": "dense_132/bias",
          "shape": [
            128
          ],
          "dtype": "float32"
        },
        {
          "name": "dense_133/kernel",
          "shape": [
            3,
            3,
            128,
            64
          ],
          "dtype": "float32"
        },
        {
          "name": "dense_133/bias",
          "shape": [
            64
          ],
          "dtype": "float32"
        },
        {
          "name": "dense_134/kernel",
          "shape": [
            64
          ],
          "dtype": "float32"
        },
        {
          "name": "dense_134/bias",
          "shape": [
            64
          ],
          "dtype": "float32"
        },
        {
          "name": "dense_135/kernel",
          "shape": [
            64
          ],
          "dtype": "float32"
        },
        {
          "name": "dense_135/bias",
          "shape": [
            64
          ],
          "dtype": "float32"
        },
        {
          "name": "dense_136/kernel",
          "shape": [
            64
          ],
          "dtype": "float32"
        },
        {
          "name": "dense_136/bias",
          "shape": [
            64
          ],
          "dtype": "float32"
        },
        {
          "name": "dense_137/kernel",
          "shape": [
            64
          ],
          "dtype": "float32"
        },
        {
          "name": "dense_137/bias",
          "shape": [
            64
          ],
          "dtype": "float32"
        },
        {
          "name": "dense_138/kernel",
          "shape": [
            64,
            256
          ],
          "dtype": "float32"
        },
        {
          "name": "dense_138/bias",
          "shape": [
            256
          ],
          "dtype": "float32"
        },
        {
          "name": "dense_139/kernel",
          "shape": [
            256
          ],
          "dtype": "float32"
        },
        {
          "name": "dense_139/bias",
          "shape": [
            256
          ],
          "dtype": "float32"
        },
        {
          "name": "dense_140/kernel",
          "shape": [
            256
          ],
          "dtype": "float32"
        },
        {
          "name": "dense_140/bias",
          "shape": [
            256
          ],
          "dtype": "float32"
        },
        {
          "name": "dense_141/kernel",
          "shape": [
            256,
            128
          ],
          "dtype": "float32"
        },
        {
          "name": "dense_141/bias",
          "shape": [
            128
          ],
          "dtype": "float32"
        },
        {
          "name": "dense_142/kernel",
          "shape": [
            128
          ],
          "dtype": "float32"
        },
        {
          "name": "dense_142/bias",
          "shape": [
            128
          ],
          "dtype": "float32"
        },
        {
          "name": "dense_143/kernel",
          "shape": [
            128
          ],
          "dtype": "float32"
        },
        {
          "name": "dense_143/bias",
          "shape": [
            128
          ],
          "dtype": "float32"
        },
        {
          "name": "dense_144/kernel",
          "shape": [
            128,
            6
          ],
          "dtype": "float32"
        },
        {
          "name": "dense_144/bias",
          "shape": [
            6
          ],
          "dtype": "float32"
        }
      ]
    }
  ]
}